model.pth (torch, 112857 bytes, 33 tensors)

stem.0.weight f4 [16, 1, 3, 3]
000000 cc 23 8a bb f9 66 7b be a6 89 19 be a6 92 57 be
       -0.004215693 -0.24551 -0.14993915 -0.21052036
000010 65 54 aa be 5f a3 14 bc c7 ce 93 bd d3 37 a4 bd
       -0.33267513 -0.009072154 -0.07217174 -0.0801846
000020 67 c0 8d bb 0b d3 58 bd b6 3e 2e 3e 3f ca a1 be
       -0.0043259147 -0.05293564 0.1701611 -0.31599614
000030 e5 ab 54 bc b4 71 91 3c 47 82 96 be 7c c5 97 3e
       -0.012980436 0.017754413 -0.2939627 0.29642856
000040 b0 d7 2f be 67 4b 5b 3e 25 fb 77 3e 23 49 fc 3b
       -0.17172122 0.21415482 0.24216898 0.0076991483
000050 d7 54 83 3e ca 3b 8a be 21 30 66 bd c5 88 88 be
       0.25650665 -0.2699874 -0.056198243 -0.26666847
000060 53 b3 4f be 0d b7 f0 3d 52 de 89 3e 28 37 45 be
       -0.2028325 0.11753664 0.2692743 -0.19259322
000070 f7 a4 fc bd c7 49 35 be 4c d3 2b bd 97 85 94 be
       -0.12336152 -0.17703925 -0.041949555 -0.2900817
000080 9e f8 8b be 6e 11 b6 bd 5c 41 a8 3e 83 d7 81 3d
       -0.27338117 -0.08890043 0.32862365 0.06339934
000090 5c d8 35 be e5 a2 57 3e 4b 9f 6e 3e 97 f5 93 3e
       -0.17758316 0.21058233 0.23302953 0.28898308
0000a0 59 98 72 3d 0d 9a 11 bb 14 42 6e 3e 4b 7c 0e 3e
       0.05922732 -0.0022217066 0.23267394 0.13914602
0000b0 94 60 44 3e d7 bb 8d 3e 74 88 4d bd b9 35 a0 3e
       0.19177467 0.27682373 -0.05017896 0.31290987
0000c0 e8 f9 13 3d 6f c9 a2 3e 16 cd 95 3e 33 0c 9a 3e
       0.036127 0.31794307 0.2925803 0.30087432
0000d0 b7 20 6e 3e c1 61 7a 3e 5e e3 48 be 99 7a 31 be
       0.23254667 0.24451353 -0.19617984 -0.17331924
0000e0 f4 a9 dd bd 68 05 5b be fd e7 65 3e e0 e0 f3 3c
       -0.108234316 -0.21388781 0.22451778 0.029770315
0000f0 33 8d 57 bd d6 2b 09 be bf a7 8a be a6 37 ff 3c
       -0.052624892 -0.13395628 -0.27081105 0.031154465
000100 31 ab 88 3e 38 20 6e 3e 6d 97 89 3e 9c 4d 51 3e
       0.2669311 0.23254478 0.2687334 0.20439762
000110 d2 56 03 3e 64 b9 d9 bc c8 6b 8e be 9e 99 88 3e
       0.12826088 -0.026577659 -0.27816606 0.266797
000120 52 42 6e be 39 47 57 be d7 c9 25 3e c2 a8 3b 3e
       -0.23267487 -0.21023263 0.16190277 0.18326095
000130 77 f5 20 be 44 40 65 3e d1 94 99 be cc 30 fa 3d
       -0.15718637 0.22387797 -0.2999635 0.122163385
000140 29 cf 19 3e 10 28 8d 3d 9c 98 65 be 64 b0 5c be
       0.15020432 0.06892407 -0.22421497 -0.21551663
000150 6d f6 90 3e f0 42 91 3d e7 2f 01 be c9 da 9e 3e
       0.28313008 0.070928454 -0.1261593 0.31026295
000160 a0 d0 a4 bd 56 b4 aa bd 85 1e e4 3d f4 89 94 3e
       -0.080476046 -0.083351776 0.11138634 0.290115
000170 f6 4f 0c be 5e a9 ff 3c 05 74 18 be 3a de 24 be
       -0.13702378 0.03120869 -0.14888008 -0.16100398
000180 10 1f 8c bd 1a 06 be b9 cd 02 3e 3e 11 70 96 be
       -0.06841862 -0.0003624417 0.18555756 -0.29382375
000190 a2 d0 4f 3e a9 22 82 3e 49 89 95 bd f1 4c c7 bc
       0.20294431 0.2541707 -0.07301576 -0.02432868
0001a0 40 c0 c5 3d 17 a5 95 be 6c c3 6f 3e e5 bf 56 bd
       0.096558094 -0.29227516 0.23414391 -0.0524291
0001b0 3f 07 77 3c ba 7e 10 3e e0 c9 02 3e 30 80 36 be
       0.015077411 0.14110842 0.12772322 -0.17822337
0001c0 01 a6 6e be 4b 41 a6 be ce 10 9b be e6 2c 8d bd
       -0.23305513 -0.3247169 -0.30286258 -0.06893329
0001d0 e9 81 8e be bc 4f 63 bd 10 ab 4f be 0e b8 5c 3e
       -0.2783349 -0.055495963 -0.20280099 0.21554586
0001e0 f2 e4 6c 3e 73 2f 95 3e 07 47 54 be 60 0a 6a be
       0.2313421 0.29137763 -0.2073022 -0.2285552
0001f0 7a a3 ed 3d 42 25 66 bd 18 24 8f 3e 28 d4 ab be
       0.11603446 -0.056187876 0.27957225 -0.335603
000200 16 89 8d 3e c0 a4 5d be e0 4d 93 be 54 85 ae bd
       0.2764365 -0.21644878 -0.2877035 -0.08521524
000210 1a f1 06 be 47 75 67 be 8b 84 26 3e 41 c4 77 3e
       -0.1317791 -0.22603332 0.16261499 0.24195959
000220 43 e0 3e 3e d5 6a 25 3b 6e 9a 0d bd b4 c3 34 be
       0.18640237 0.0025240679 -0.034571104 -0.1765278
000230 f0 92 a8 3e 56 6a 25 be fa c7 a4 be 41 9d 95 3e
       0.32924604 -0.16153845 -0.3218382 0.29221538

stem.1.weight f4 [16]
000000 20 16 82 3f 19 e3 81 3f 4e 3d 77 3f 4c c2 81 3f
       1.0163002 1.014743 0.9657792 1.013742
000010 fe 40 7d 3f 10 a6 7c 3f 95 f3 80 3f d6 ac 74 3f
       0.98927295 0.9869089 1.0074335 0.95576227
000020 9a 4e 7f 3f 62 94 80 3f 13 13 7e 3f b1 95 80 3f
       0.9972931 1.0045283 0.99247855 1.0045682
000030 2a 13 80 3f 67 7c 87 3f 2e ee 81 3f 11 a0 83 3f
       1.0005848 1.058484 1.0150812 1.0283223

stem.1.bias f4 [16]
000000 7c 22 43 bd e4 9d a0 3b 57 e8 5c ba 63 24 5a bd
       -0.04764031 0.0049016345 -0.00084269553 -0.053257357
000010 f2 40 0b bb 64 9e d2 3c 8b 8f 0e 3d 6d 94 55 bb
       -0.0021248427 0.025710292 0.034804862 -0.003258969
000020 c3 41 d6 bc 13 09 73 3d 2f 5b 0e bd da df a3 bc
       -0.026154405 0.059334826 -0.03475493 -0.020004202
000030 a2 e0 84 bd d7 ea 48 3d 31 e0 2c bd 15 73 eb 3c
       -0.06488158 0.049052086 -0.042205993 0.028741399

stem.1.running_mean f4 [16]
000000 d3 ee 7e be 35 f8 de bc 0f 9a 1a 3d cc 92 2e be
       -0.24895792 -0.027217964 0.037744578 -0.17048186
000010 9a 50 8b 3e c0 4d e7 3e 94 e9 58 be df 3e 78 3e
       0.27209932 0.45176506 -0.21182853 0.24242733
000020 cc 63 8f bc 90 d5 f2 bb 8f a5 f1 3c 32 ca 95 3c
       -0.017503642 -0.0074107125 0.02949789 0.01828489
000030 32 d4 7d be 3c 44 82 3c c1 08 fe bd cd a2 9d 3d
       -0.24787977 0.015901677 -0.124040134 0.076970674

stem.1.running_var f4 [16]
000000 ff 61 ea 3c 8c 46 b8 3b 3a 8a b1 3b 19 4b 96 3c
       0.028611181 0.005623644 0.005418089 0.018346356
000010 15 4c ed 3c e6 47 9f 3d 0f 15 79 3c 06 06 e5 3c
       0.028966943 0.077773854 0.015202775 0.027956974
000020 e3 66 d2 3b b2 02 34 3c 4b 88 f4 3a 6e 39 0b 3c
       0.0064209565 0.010986971 0.0018656341 0.008497579
000030 54 57 06 3d bb e7 e7 3a c3 3a 80 3c e9 89 0a 3c
       0.032798126 0.0017692962 0.01565302 0.008455732

features.0.depthwise.weight f4 [16, 1, 3, 3]
000000 e5 a7 02 bd 46 23 2b 3e 11 a1 f0 bd e6 6e 89 3e
       -0.031898398 0.16712674 -0.11749471 0.2684242
000010 bf 50 81 be 1b 62 6e 3e 74 5f 80 3e 3f 39 88 3c
       -0.25256917 0.23279612 0.25072825 0.01662886
000020 e5 ae 8f 3e 21 df 7c 3c d5 86 b2 be 20 63 f8 3d
       0.2806312 0.015434057 -0.34868494 0.121282816
000030 45 d7 90 be c9 64 5a 3d d6 c0 9d be bc 8e 18 be
       -0.28289238 0.053318772 -0.30811185 -0.14898199
000040 90 d3 2e bd 22 53 13 be 7e 31 97 be c4 ed 2d be
       -0.04268223 -0.14387181 -0.29529947 -0.16985232
000050 05 37 8c be f9 1a a6 be 21 b1 9b be 08 2f 3b be
       -0.27385727 -0.32442454 -0.30408576 -0.1827966
000060 7a a3 97 bd 41 f7 9f 3e 1c 74 42 be e2 84 8f be
       -0.074042276 0.31243327 -0.18989605 -0.2803107
000070 a0 e5 84 be 70 ee a6 3e 1d df 2b bd 9a 8e b2 bd
       -0.2595644 0.32603788 -0.041960824 -0.08718605
000080 52 0c 2a 3e e4 8f 44 be 7d ee f8 bd c3 e8 a4 3e
       0.16606262 -0.19195515 -0.12154863 0.32208833
000090 f9 16 26 3e 7e 03 9d be 7c ad 87 bd cb 80 2a 3d
       0.16219701 -0.30666727 -0.066248864 0.041626733
0000a0 65 09 12 3e 2c a3 bf bd c2 64 61 3e 0f b8 ad 3c
       0.14261396 -0.093572944 0.22011092 0.02120593
0000b0 be 2a 96 be 3f f3 0a 3e 02 4e b2 be b6 d6 9e 3c
       -0.29329485 0.13569354 -0.3482514 0.019389492
0000c0 bf c6 9d be 57 39 83 bd 9a 60 54 bc fc 0b 8f be
       -0.30815694 -0.06407421 -0.012962485 -0.2793883
0000d0 36 99 be bd ff c4 33 3d f8 64 2b be ae 3a 72 3d
       -0.093065664 0.043889042 -0.16737735 0.059137993
0000e0 55 2a 4d 3e 4a 6e 00 3d 1b 3a b2 be ab 99 06 bd
       0.2003568 0.03135518 -0.34809956 -0.032861393
0000f0 72 70 13 be c8 d6 d5 3d da 70 8d be 45 7a 4c be
       -0.14398363 0.10441357 -0.2762516 -0.19968517
000100 2c 81 54 3b a2 31 51 3e a7 61 98 bd 1a cf 9b bc
       0.0032425625 0.2042909 -0.07440501 -0.019019652
000110 60 22 98 bc 4c 33 75 be 65 39 33 bb 92 e8 8f 3c
       -0.018571079 -0.2394535 -0.0027347442 0.017566953
000120 d7 89 d1 3d 87 31 05 3e 53 27 00 3e 64 bc 3c 3e
       0.10231369 0.13007174 0.12515001 0.1843124
000130 a2 85 ba bd cd 54 37 be 03 a0 88 3e 4d 7c 87 3e
       -0.0910752 -0.17903443 0.2668458 0.2646202
000140 68 fa 44 3e ae cf 70 3e 8d 3d 19 3e 26 e5 79 3e
       0.19236147 0.23516724 0.14964886 0.2440382
000150 54 0f 8d 3e 9a 23 86 be a4 58 bc be af 49 68 be
       0.27550757 -0.26199037 -0.36786377 -0.22684358
000160 1f 6f 84 3e 14 4f 99 3e 2d e9 80 3d e4 ed 78 be
       0.2586603 0.29943144 0.06294475 -0.24309498
000170 d9 cf 03 be 7f bd 2f 3e 8c 3d 94 3e 2d a3 8f 3d
       -0.12872256 0.17162131 0.28953207 0.07013545
000180 23 24 8b be e0 1c 8a 3e e6 76 ab 3e 8b 76 0c be
       -0.27176008 0.26975155 0.3348915 -0.13717096
000190 08 ea 50 be 19 aa 58 3e 4e c9 6f be 29 1b 96 3e
       -0.20401776 0.21158637 -0.23416635 0.29317597
0001a0 ee e6 a5 bd 4c b4 6e 3c 89 06 2f be cd 02 a9 be
       -0.08100687 0.014569353 -0.17092337 -0.3300995
0001b0 aa 85 b9 3d e8 e2 d5 bd 3e 8e 4a be e4 22 8b 3e
       0.090586975 -0.104436696 -0.19780824 0.27175057
0001c0 cf df 6b 3d 00 36 b2 bd b7 40 ad be a2 f7 35 be
       0.057586487 -0.08701706 -0.33838436 -0.17770246
0001d0 81 4b bb bd ea ff 52 3e 05 d6 98 be 24 ac 37 3e
       -0.091452606 0.20605436 -0.29850784 0.1793676
0001e0 1f 6e 8e 3e 89 1f 08 3e 5d 96 e3 be ff 06 e5 bc
       0.2781839 0.1329328 -0.44450656 -0.027957438
0001f0 bd 84 07 be 30 41 b9 3d fa 91 70 39 44 7d 42 3e
       -0.1323423 0.09045637 0.00022942564 0.18993098
000200 15 e5 1b bd 76 ad a0 3d 9d 71 05 3e 50 66 9e be
       -0.038060267 0.07845585 0.13031621 -0.30937433
000210 47 7b 30 3d 19 47 80 3e 14 45 77 3e f1 28 08 3d
       0.043086316 0.25054243 0.24147445 0.03324217
000220 df d4 7e bd 66 6c f2 3d 1a 20 8f be e5 8c bf bd
       -0.06221473 0.118370816 -0.2795418 -0.093530454
000230 56 36 ae 3e 64 c7 82 3d 00 bf 7a 3c 81 a7 91 be
       0.3402583 0.06385687 0.015304327 -0.28448108

features.0.pointwise.weight f4 [32, 16, 1, 1]
000000 7f d0 d1 bd 10 73 ec 3c f7 e8 3a be 9c 2b 03 be
       -0.102448456 0.02886346 -0.18252932 -0.12809604
000010 c4 16 9d bd 73 2e a3 3d 32 82 d9 39 aa d1 80 be
       -0.07670358 0.07967844 0.00041486468 -0.2515996
000020 97 9b db 3d fe 4b c6 3c d5 c9 1b be b1 b1 63 3e
       0.10723036 0.024206158 -0.15213712 0.22235753
000030 1f ca fc bd ae 5f 89 be 87 f5 ec 3c 86 ad 01 be
       -0.12343239 -0.2683081 0.02892567 -0.1266385
000040 3b b4 35 be 8a ea 5b be 72 1c 2c bd 0c 68 99 3e
       -0.17744534 -0.21476188 -0.042019315 0.29962194
000050 5d 54 52 be 30 23 23 be fd 91 14 3d 44 6a 38 be
       -0.20539995 -0.15931392 0.036272038 -0.18009287
000060 a4 28 bc 3c 3f 1b b4 bd 4e ee 3e 3e be a1 50 be
       0.022968598 -0.08794259 0.18645594 -0.203742
000070 8d 66 02 3d 6a 60 0a 3e 9d 79 26 3c 82 6d ea bd
       0.03183608 0.13513342 0.010160831 -0.11446668
000080 8f f2 9b 3e 13 51 4d be 2e 22 41 3e 1e e1 1e 3d
       0.30458495 -0.20050459 0.18860695 0.038788907
000090 79 77 ce 3d 16 d0 46 3e 1b 33 be 3c e3 8e c0 3c
       0.10081381 0.19415316 0.023217728 0.023505634
0000a0 6a f8 9b bc a6 93 38 be ca 92 e4 3d ff e3 7b 3e
       -0.019039351 -0.18025073 0.1116081 0.24598692
0000b0 6b 37 e9 3d 1e 0a b6 bc 85 28 7d be 71 0e 1f bd
       0.11387523 -0.022221621 -0.24722488 -0.03883213
0000c0 4a 4f fb 3c c5 d6 35 be ef 6d 62 3e b3 46 6b 3c
       0.030677456 -0.1775771 0.22112249 0.014360118
0000d0 f0 eb 1c 3d b9 d9 6a 3e e4 33 05 3e e8 51 da bd
       0.038310945 0.22934617 0.13008076 -0.106601536
0000e0 fd 34 e3 3d 15 68 22 3e d6 ac f9 3d 23 7a f4 bd
       0.11094091 0.15860017 0.12191169 -0.11937358
0000f0 1e eb b7 bb 9d 6c 77 be 61 78 59 bd 9e df 18 be
       -0.005612745 -0.24162526 -0.053093318 -0.14929053
000100 04 e5 01 3e 55 7f 8d 3e ab 01 49 be df 92 e1 bd
       0.12685019 0.2763621 -0.19629543 -0.110143416
000110 65 ae fb bd d7 53 12 be fe d7 95 3e 3f 80 2c be
       -0.122891225 -0.14289795 0.2926635 -0.16845797
000120 7c 68 10 be 15 77 88 be 2c e6 a4 3d 6f 02 45 be
       -0.14102358 -0.26653352 0.08051714 -0.1923921
000130 85 35 30 be ad d5 86 3e ba 8e 98 3d 61 77 05 3e
       -0.17207916 0.26334897 0.07449098 0.1303382
000140 48 ca 47 3e 8f 70 85 bb 38 2d 3e 3d fe 79 12 be
       0.19510758 -0.004072256 0.046429843 -0.14304349
000150 63 13 6b 3d 77 cb 4d be c9 92 93 bc 75 90 c7 bd
       0.057391535 -0.20097147 -0.018014329 -0.0974435
000160 46 ae 23 be c3 9d f9 bd 88 90 0e be 69 ad e6 bd
       -0.15984449 -0.12188294 -0.13922322 -0.11263544
000170 da 82 26 be 29 4b 1f be 35 13 80 be f8 ae 78 3e
       -0.16260853 -0.15556015 -0.25014654 0.24285495
000180 dd 5a cd 3d 57 f3 70 be b0 8c 81 be 58 4d a7 bd
       0.100270964 -0.23530327 -0.2530265 -0.08169049
000190 49 ef 4a 3d 4e a0 7e 3e 1f 30 4e bc 1c 55 1e 3e
       0.049544606 0.24865839 -0.012584715 0.15462154
0001a0 e9 37 15 bd 98 b6 83 bd e9 86 f7 3b 1e 85 73 be
       -0.036430273 -0.06431311 0.0075539243 -0.23781249
0001b0 2b 01 70 3d 63 d0 79 3d f0 7c 68 3e f5 d8 7d be
       0.058594864 0.06098975 0.2270391 -0.24789794
0001c0 1f b5 bc bd b6 4c 27 3d a0 e5 9c 3d 25 da 5b 3d
       -0.092142336 0.04084464 0.07660985 0.053674836
0001d0 02 80 3c be 6c 8a 45 3e ef d8 6f be f0 a2 f6 bd
       -0.18408206 0.19291085 -0.23422597 -0.120427966
0001e0 29 ab 01 3e c6 d8 fa bc 7b 60 29 be 61 1b 70 be
       0.12662949 -0.030620944 -0.1654071 -0.23447944
0001f0 72 f3 2d 3e 30 b4 85 3c e1 6e 06 3e 6a 54 e8 3c
       0.16987398 0.016321272 0.13128234 0.028360564
000200 9b ae 55 be 5f b7 1a be 1e 23 3a 3e 4f 4d 04 be
       -0.20867388 -0.15109013 0.18177459 -0.12920116
000210 26 8b 09 be 9d b2 08 3e 9a 88 22 bd e1 e5 98 bc
       -0.13431987 0.13349386 -0.039681055 -0.018664302
000220 bb 80 a0 bd c9 d5 0e 3d 88 78 25 3d 17 6c 75 be
       -0.078370534 0.03487185 0.04039815 -0.23967014
000230 76 cb 24 be b8 ce 00 3e e5 06 d8 bd fd 8e 0e 3e
       -0.16093239 0.12578857 -0.1054819 0.13921733
000240 ba 1a 10 3d 33 91 5a bd 88 a1 06 bd 3c 45 d3 bd
       0.03518174 -0.05336113 -0.032868892 -0.1031594
000250 8e b0 df 3d 77 90 5d 3e 6a 83 ff bc 81 f6 03 be
       0.10922347 0.2163714 -0.031190593 -0.12887003
000260 55 b9 2c 3e de ba 5b 3e f2 79 39 3e fc e4 9b bc
       0.16867574 0.21458003 0.18112925 -0.019030087
000270 a0 b9 a6 3d 16 93 29 3d e8 bd 07 be 90 09 8c be
       0.08140874 0.041400038 -0.13256037 -0.27351046
000280 1a 4c f1 3b fd 71 32 3e 2c 2a 1d 3e f4 1d a1 3c
       0.0073638083 0.17426296 0.15348119 0.019667603
000290 7e 3a d4 3d 28 77 0d 3e 6f 52 97 bd f0 fb db 3d
       0.10362719 0.13814986 -0.0738877 0.10741413
0002a0 86 e5 27 3d 4c 36 42 bd 1c 03 9b bd cd 09 1f be
       0.040990375 -0.047415063 -0.075689524 -0.15531082
0002b0 f7 78 76 be 5e a9 a2 3c 2e dc 89 3e c5 bc 7b 3d
       -0.24069582 0.019856151 0.26925796 0.06145932
0002c0 ef c5 c4 3c 3c 26 f9 bd 23 8b b8 bd 76 5c b6 bd
       0.024020163 -0.12165496 -0.09010913 -0.08904354
0002d0 8c c5 da 3d 67 7f b0 3d ec 9a b6 bd 4d 29 96 3d
       0.1068221 0.0861805 -0.08916268 0.07332096
0002e0 f0 18 09 bc 48 2e bb bd eb c5 2a 3e 12 0c 90 bd
       -0.008367762 -0.09139687 0.16677062 -0.07033552
0002f0 24 f4 91 3e c6 cc 2e be 54 c1 57 3e 61 95 95 3d
       0.28506577 -0.17070302 0.21069843 0.073038824
000300 71 13 6e 3d 61 ea ab bd 5c 22 dc bd 03 4f 42 be
       0.05812401 -0.083943136 -0.10748741 -0.18975453
000310 dd 67 41 be 58 c9 29 3e d1 b3 87 3e 1a 5c 16 3d
       -0.18887277 0.16580713 0.26504377 0.03670893
000320 2c ed a3 bd e9 f4 29 3d a7 bd 39 3d 6b fd 2b be
       -0.08004221 0.04149333 0.045346882 -0.1679589
000330 93 d3 83 be eb ec 23 3e 0d f7 55 bc ac 05 b4 bd
       -0.25747356 0.16008346 -0.01305939 -0.08790144
000340 13 3e a3 bd f7 7b d7 3d fd a2 d9 bd ac fb 01 bd
       -0.07970824 0.10521691 -0.10626791 -0.031734154
000350 6e d1 07 3e 78 53 99 3e cc bb 48 3e ed 93 f6 3d
       0.13263485 0.29946494 0.19602889 0.12039933
000360 46 7c 91 bc 40 f4 6a 3e 2c 4b 4f 3e 2f 45 f6 3d
       -0.017759454 0.22944736 0.2024352 0.120249145
000370 80 b4 ea 3d 55 05 86 3d 79 d1 0f 3d 68 45 35 3e
       0.11460209 0.06543986 0.035111878 0.17702258
000380 55 96 83 3d cb c0 5a be 4a a1 28 be 82 02 77 be
       0.06425158 -0.21362607 -0.16467777 -0.2412205
000390 aa 29 a4 bd b5 1f d0 3b 46 ca ba bd 9c 9d 79 be
       -0.08015759 0.006351436 -0.09120612 -0.2437653
0003a0 2a 65 18 be 2d cb c0 3d 57 2e ae bd 60 31 c4 bc
       -0.14882341 0.09413753 -0.085049324 -0.023949325
0003b0 f5 4e e4 3c 34 fd 06 bd ce 0b 04 be d0 d7 2e be
       0.02786968 -0.032956317 -0.12895128 -0.17074513
0003c0 ca cb 06 be c0 8d 95 be 0e 76 36 be 26 fa 53 bd
       -0.13163677 -0.2920971 -0.17818472 -0.051752232
0003d0 60 e9 0a 3e c6 64 61 3e 46 94 45 3c ef f3 11 3e
       0.13565588 0.22011098 0.012059277 0.1425321
0003e0 13 80 f9 3d 4d 56 74 be e2 81 12 be 10 95 d5 bd
       0.12182631 -0.23861046 -0.14307359 -0.10428822
0003f0 61 c6 64 be 8a 69 8f 3d c6 dd a3 3d cc 0b 4e be
       -0.223413 0.07002552 0.08001284 -0.20121688

features.0.bn.weight f4 [32]
000000 dc 90 7a 3f 26 fa 73 3f a3 d8 7b 3f 7f 53 7d 3f
       0.9787729 0.9530357 0.98377436 0.9895553
000010 a2 6d 83 3f 16 71 82 3f ab 3b 74 3f ac 21 7b 3f
       1.0267832 1.0190761 0.95403546 0.98098254
000020 8d 6c 82 3f 88 60 85 3f db b3 80 3f f0 47 79 3f
       1.0189377 1.0420084 1.0054888 0.9737539
000030 ea b8 87 3f a8 17 7f 3f a4 1c 79 3f 0c 52 83 3f
       1.0603306 0.9964547 0.9730933 1.0259414
000040 4a 7f 7f 3f dc 3c 7d 3f 60 1c 85 3f b0 ca 7a 3f
       0.998036 0.9892099 1.0399284 0.97965527
000050 ed 5b 83 3f 38 79 80 3f 3e 1d 85 3f 0a 88 80 3f
       1.0262429 1.0036993 1.0399549 1.0041516
000060 9b f8 7d 3f cd 5f 7b 3f 42 92 7e 3f 3d f0 7e 3f
       0.99207467 0.98193055 0.9944192 0.99585325
000070 88 fb 82 3f ee d9 7c 3f 10 5a 72 3f 04 ee 8a 3f
       1.0233011 0.98770034 0.94668674 1.0853887

features.0.bn.bias f4 [32]
000000 2e 42 8a bd ac 47 34 bb f7 4d 15 bd 5c 63 7c 3b
       -0.06750904 -0.002750854 -0.036451306 0.0038511371
000010 36 6b 8e bd c6 96 bc 39 ee f2 3c bd 16 06 87 bc
       -0.069540426 0.0003597049 -0.046130113 -0.016482394
000020 23 fb 24 bd 4b 76 8f bb e1 d9 bc bc 5a 95 39 bd
       -0.040278565 -0.0043781153 -0.023053112 -0.04530845
000030 e2 94 8e 3a 22 f6 b1 bb e4 5c 08 3c 8b 20 ce bb
       0.0010878111 -0.0054309526 0.008322928 -0.0062905005
000040 32 65 69 bc 15 f6 c8 bd aa 49 8b 3a fa c5 49 bd
       -0.014245318 -0.098125614 0.0010626812 -0.04926107
000050 59 24 df bc 87 25 8e bb 06 cf 20 bb 86 c5 23 3c
       -0.027239012 -0.0043379697 -0.0024537458 0.009995824
000060 df 4b 8c bc 81 78 1c bd 83 aa d1 3a 8a 85 1a bd
       -0.017126022 -0.03820086 0.0015996251 -0.03772501
000070 17 e1 b7 bc c9 b7 4d bd 61 03 1f bc 1b 59 54 bc
       -0.022446198 -0.0502241 -0.009705395 -0.0129606975

features.0.bn.running_mean f4 [32]
000000 44 65 a8 3d f3 32 3b 3e f4 a5 15 be 85 e1 39 bc
       0.0822244 0.18281154 -0.14614087 -0.011345272
000010 4f 96 a6 3c 99 02 03 3c 89 c1 76 3e 52 c2 21 bd
       0.020335345 0.007996225 0.24097265 -0.03949196
000020 33 f4 8f bd 27 a1 c2 3d 69 35 87 bd ca d9 cd 3d
       -0.07028999 0.095033936 -0.06601984 0.100513056
000030 8a 70 b7 3d e4 f5 21 be de 24 50 3e 01 0f 0b 3e
       0.08957012 -0.15816456 0.20326564 0.13579942
000040 e5 56 e0 bd 1a a5 24 be 10 cd 99 3d af 8d 6e 3c
       -0.10954074 -0.16078606 0.07509816 0.014560147
000050 bb 55 eb 3d 68 4b 8c bd 2f 26 0b 3e 68 e3 8a bd
       0.11490961 -0.0685032 0.13588785 -0.067816556
000060 bf 7f 40 bd 9b ee 9d bd 34 b1 8d 3d f9 00 50 3d
       -0.04699683 -0.07711526 0.069185644 0.050782178
000070 5c 20 2d be dd 20 88 bc 93 a0 99 3e fc 75 6c bd
       -0.16906875 -0.016617233 0.3000532 -0.057729706

features.0.bn.running_var f4 [32]
000000 82 ea da 3c b5 a7 86 3d ec 33 61 3d 6c 46 11 3d
       0.02672315 0.06574956 0.054981157 0.03546755
000010 8f dc 7c 3d 63 4a f9 3c 30 47 32 3d 8d e8 db 3c
       0.06173378 0.030430978 0.04352492 0.026844287
000020 31 b3 a5 3c f6 99 e6 3c 08 21 59 3d 3a df 9e 3c
       0.020227047 0.028149586 0.053010017 0.019393552
000030 f7 b9 b0 3c 27 20 02 3d d5 0a b1 3c 4f ed 39 3d
       0.02157305 0.031768944 0.02161161 0.04539233
000040 e0 ac 5d 3d 73 4c 89 3c 9b d6 94 3c eb 04 e9 3c
       0.054119945 0.016760087 0.018168738 0.028444728
000050 8b 32 82 3d be f0 42 3d c2 85 2c 3d 51 62 df 3c
       0.063572966 0.04759287 0.04211975 0.02726856
000060 a8 ae f5 3c 65 7f 25 3d 90 c3 5d 3d 14 75 08 3d
       0.02999051 0.040404696 0.05414158 0.03331478
000070 97 a1 f5 3c 87 60 44 3d 9e b9 07 3d 5c 3a 00 3d
       0.029984279 0.04794362 0.033136003 0.031305656

features.1.depthwise.weight f4 [32, 1, 3, 3]
000000 79 35 79 bc b0 7a f6 bd d0 24 49 3e d7 41 87 3e
       -0.015210503 -0.120351195 0.19642949 0.2641742
000010 ad cc 83 bd 5a b7 71 3e ff 62 9b bc df 23 f9 bc
       -0.06435523 0.236051 -0.018968103 -0.030412612
000020 10 93 aa bd 53 9e a9 be 0a 53 28 3e ae 48 14 be
       -0.08328831 -0.33128604 0.16437927 -0.1448085
000030 0e 4d 83 be b8 90 2f bd aa 6a 10 be d0 fa ff bd
       -0.25644726 -0.042862624 -0.14103189 -0.124990106
000040 2c 30 16 3c fe 13 ba bb 0b b6 0e 3e 26 14 46 3c
       0.0091667585 -0.005678653 0.13936631 0.012089765
000050 d1 28 64 bd 43 5e 8f 3d c4 1e 4a be 46 ab 83 3e
       -0.055702988 0.07000401 -0.19738299 0.2571661
000060 b5 82 35 3e 45 21 4f 3e cd fa a5 be 3e 6e 5c 3e
       0.17725642 0.20227535 -0.32417908 0.21526429
000070 74 25 7a 3d 29 6c 95 be 14 8b b4 3e 3a 98 24 3d
       0.061070874 -0.29184082 0.35262358 0.040184237
000080 db 3e 7d 3d 7b 33 6a 3e c3 ba 96 3e 08 a2 70 3e
       0.06182752 0.228712 0.29439363 0.2349931
000090 f7 7d b9 be 49 fc c1 3e 66 7c 88 3d 3d 59 ae bd
       -0.36228916 0.3788779 0.06664352 -0.085131146
0000a0 a0 9d 8b be 24 cd 2b be 5a 21 99 3e 42 4a 81 3e
       -0.27268696 -0.16777474 0.29908258 0.25251967
0000b0 07 ba 62 3e e6 51 64 bd f6 84 0a be b2 74 f2 3d
       0.22141276 -0.055742167 -0.13527283 0.11838664
0000c0 c1 a7 2a be 4f d1 4e be 60 23 cd 3d 72 7b 92 3e
       -0.16665556 -0.20197032 0.10016513 0.28609806
0000d0 fb 73 7d be 52 14 b4 be 95 4a 53 3c c7 53 41 be
       -0.24751274 -0.35171753 0.0128962 -0.18879615
0000e0 3b e7 16 be 8f c5 d1 bd 34 60 08 3d 05 f6 52 bd
       -0.14736645 -0.102427594 0.03329487 -0.051504154
0000f0 bc f4 16 3e 21 68 65 3e 47 73 95 3d b9 46 df bd
       0.14741796 0.22403003 0.07297378 -0.10902161
000100 e3 ae 50 bd d0 9b 3b 3e b6 e6 84 3d d4 38 9c be
       -0.050948035 0.18321157 0.06489317 -0.30512106
000110 4a 47 83 3d 38 3c 60 3e 43 ba 79 bd 61 83 80 bd
       0.06410082 0.21897972 -0.06096865 -0.062750585
000120 f5 0c cf bb d8 fe 73 3e c7 f9 83 3e 85 10 7a be
       -0.0063186833 0.23827684 0.25776502 -0.24420364
000130 d3 66 87 3e 05 0f 39 3e 26 14 1f 3e d3 2f 68 be
       0.26445636 0.18072136 0.1553503 -0.22674493
000140 30 ac 0d be 92 d2 b9 3e 6a 93 bb 3d 32 cc a9 bd
       -0.13835216 0.36293465 0.091589764 -0.082909
000150 de 9f 91 bd 23 87 82 3e 30 e1 b9 bd d8 23 7f 3e
       -0.0711057 0.25493726 -0.09076154 0.24916017
000160 da 77 e6 bd 8a 10 a7 3d 48 94 0e 3e e7 2f 1b be
       -0.112533286 0.081574515 0.13923752 -0.15154992
000170 67 bc 02 3d db 4e 0c 3d ed 3a a8 be 00 3a 50 bd
       0.031917956 0.03425489 -0.32857457 -0.050836563
000180 c7 16 f0 3d fd 88 94 3e fb f1 99 3d 37 02 92 be
       0.117230944 0.29010764 0.07516857 -0.28517315
000190 22 12 a3 bd cd 80 b1 3e fd 73 ad bd 83 9f 7c 3e
       -0.07962443 0.3466858 -0.08469389 0.24670224
0001a0 42 59 c0 39 5b 8a 41 3e e4 95 1f be cd 02 94 3e
       0.00036687596 0.18900435 -0.15584522 0.28908387
0001b0 7e 46 3f 3d e4 ab 1e be 55 8c 8f 3e 4a 88 60 3e
       0.046698086 -0.15495259 0.28036752 0.2192699
0001c0 58 be 6d be 2a 54 78 bd 94 3b 83 3e 87 c0 9f 3d
       -0.23217142 -0.06062714 0.25631392 0.078003936
0001d0 62 26 ae bd 39 c5 55 be de 33 71 be 5a a0 46 3e
       -0.08503415 -0.20876016 -0.23554942 0.19397107
0001e0 1b 97 11 3e 16 9c 93 be 4c d5 b5 bd a3 0c 06 3e
       0.14217798 -0.28830022 -0.08878574 0.13090758
0001f0 34 a5 99 be f8 89 91 3e 8a 87 cf bd 9e e2 36 be
       -0.30008852 0.28425574 -0.10133274 -0.17859885
000200 42 f2 e7 3c b9 ef f3 3d 81 4e 57 3d c0 a2 8b 3e
       0.02831376 0.11910958 0.0525651 0.27272606
000210 5a 37 30 3e d3 26 dd 3a 96 19 d4 3c 3d 2d e2 3d
       0.17208615 0.0016872532 0.025891107 0.11043785
000220 93 c4 14 be 75 f6 9b be d5 f4 43 3c da 05 2d be
       -0.14528112 -0.3046147 0.011960228 -0.16896763
000230 35 57 88 be b9 6a cf 3d 72 2f 08 be a2 05 c5 3e
       -0.26629034 0.101277776 -0.13299349 0.3848086
000240 45 17 fa 3d 16 e6 24 3e ea 6f 43 3d b2 70 c7 3d
       0.122114696 0.16103396 0.04771415 0.09738292
000250 ee e2 64 3e 38 f0 8a 3e ce db cd bc 9c 9e f1 bd
       0.22352192 0.27136397 -0.025129225 -0.117978305
000260 49 c9 9a 3d 84 95 25 be 1e 71 52 bd ad 2f be 3c
       0.07557923 -0.16170317 -0.05137741 0.023216093
000270 38 6b 60 3e eb 49 96 be 27 1b 33 3e 0b 07 05 be
       0.219159 -0.2935327 0.17490827 -0.12990968
000280 64 d9 63 be 31 e4 df bd e4 25 52 3b 59 25 1c 3e
       -0.22250897 -0.10932196 0.0032066042 0.15248622
000290 3b 74 94 be f7 61 14 3e e8 7f ab 3e c6 f4 80 be
       -0.28994927 0.14490496 0.33496022 -0.25186747
0002a0 e3 6b 81 3d ce 50 09 be 30 48 dd 3d af ca 74 3d
       0.06319406 -0.13409731 0.10804784 0.059763607
0002b0 29 26 4f be 20 25 01 3e 21 54 b3 3e ca 07 05 3d
       -0.202294 0.12611818 0.35025123 0.03247813
0002c0 0b 17 5b be 97 1f 98 bc 9e 09 b7 3d e5 4b d3 3d
       -0.21395509 -0.01856975 0.08937381 0.1031721
0002d0 94 df 23 bd de 99 90 bd 57 3e 3c be 09 6c 66 3e
       -0.040008143 -0.07060598 -0.18383156 0.2250215
0002e0 d4 8c 7c be 91 37 06 be 2e 1c 6d 3e e7 fc fc bd
       -0.24663097 -0.13107134 0.23155281 -0.12352925
0002f0 3e fa 78 3d 90 fe ff bd e3 05 ae be 60 92 34 3e
       0.060785525 -0.12499726 -0.33988866 0.17633963
000300 5d 94 3a be a6 e6 1c be 2f b3 96 bd d8 e8 f3 3d
       -0.18220659 -0.1532236 -0.07358395 0.11909646
000310 8e fb 79 3e 26 c9 8c 3e dc d6 b6 3c 15 2e 91 be
       0.24412367 0.27497214 0.02231925 -0.2835547
000320 55 78 96 3d 43 48 b1 3c 71 db 9d 3e 87 df f3 bd
       0.0734717 0.021640902 0.30831483 -0.11907869
000330 67 11 a8 be 6d 79 15 3e 3b 8f b5 bd 52 45 b9 3d
       -0.32825777 0.14597102 -0.0886521 0.09046425
000340 c9 b0 e7 3d c8 f1 c2 3d 4b 2e 57 3e 37 4f 8c be
       0.11313016 0.09518772 0.21013753 -0.27404186
000350 20 73 91 be c5 f6 95 3e 28 20 95 3e ce aa 0c be
       -0.28408146 0.29289833 0.29126096 -0.13737032
000360 86 2d a7 3e 97 92 e6 3c a8 ea dd bd fa 12 36 be
       0.3265192 0.028146071 -0.10835773 -0.17780676
000370 e8 d1 36 be e5 dc 92 3e 08 fe 74 be 4e de 10 bd
       -0.1785351 0.28684154 -0.2392503 -0.035368256
000380 ff 91 a0 3e c6 e1 d5 bd dd 3c 99 3e 05 da ba 3d
       0.31361386 -0.104434535 0.29929247 0.09123615
000390 c6 69 3f 3e ef eb 01 3e 02 09 cd bd 6b 4c 41 3e
       0.18692693 0.12687658 -0.10011484 0.18876807
0003a0 73 0d b8 3d 80 7d 47 be 1f ee 8a be f6 aa 53 be
       0.0898694 -0.19481468 -0.27134797 -0.20670685
0003b0 c2 65 22 bd 3a 5f 04 3e 6a 57 69 be 00 bd c8 3d
       -0.039647825 0.12926951 -0.22787252 0.09801674
0003c0 3a 60 82 3e c6 4d 24 3e 11 1a e5 bd e0 24 e7 3d
       0.2546404 0.16045293 -0.111866124 0.1128633
0003d0 a6 26 99 be 94 14 90 3e e6 f3 68 be b1 14 97 3c
       -0.299123 0.281407 -0.2274929 0.018442484
0003e0 cd 4e 05 be 05 28 9d be d9 ab 90 be 14 93 ed bd
       -0.13018341 -0.30694595 -0.2825611 -0.116003186
0003f0 c7 11 8a be 40 d7 8f 3e a6 ba a9 bd c6 64 10 be
       -0.26966688 0.2809391 -0.082875535 -0.14100942

features.1.pointwise.weight f4 [64, 32, 1, 1]
000000 a3 c9 14 be 69 40 2c 3e 95 52 19 bd c5 04 98 3d
       -0.14530043 0.16821446 -0.037432272 0.07422785
000010 b1 f8 ea bc 22 e4 d3 bc 70 23 34 3e a8 32 42 3e
       -0.028683038 -0.025865618 0.17591643 0.18964636
000020 0f 6f d1 bd 80 21 05 3d 94 bb 7c 3d 00 b6 5b bd
       -0.10226261 0.03250265 0.061702326 -0.053640366
000030 f7 f6 8a bb 34 97 2d 3e e2 e8 31 3e 5e 3f 8c bd
       -0.0042408663 0.1695221 0.17373994 -0.06848024
000040 01 42 b3 3d f9 e0 10 bb cc a2 2b bd 35 61 50 3e
       0.087528236 -0.002210675 -0.041903302 0.20349582
000050 ff c6 1b bc 55 64 dc ba 77 36 2c bd 7e 4a 08 be
       -0.009507894 -0.0016814569 -0.04204413 -0.13309667
000060 9d b7 2c 3e 59 e8 1a be 31 fd dd bd ca 0e af 3c
       0.16866918 -0.15127696 -0.10839308 0.021369357
000070 e0 22 43 3d 2d ba 8a 3d 75 18 76 3d f1 ce 6e 3e
       0.04764068 0.067737915 0.060081918 0.2332113
000080 42 54 35 be 5e c6 aa bd ea b7 79 3d 66 66 49 be
       -0.17707923 -0.08338617 0.06096641 -0.19667968
000090 2c b8 21 be 33 06 db 3d 4d 79 c0 3d 86 30 0f bd
       -0.15792912 0.10694542 0.09398136 -0.034958385
0000a0 be e9 19 3d 19 71 04 bd e6 de bc bd 1f 62 9f 3d
       0.03757643 -0.03233442 -0.09222202 0.07782387
0000b0 3c fc 3a bd 22 db a5 3d fb 17 ed bd 7a 6d 3b bd
       -0.045650706 0.08098437 -0.115768395 -0.0457587
0000c0 01 e5 ad 3d 8c 88 12 3d 7a 00 49 bd 1b 46 02 3e
       0.08490945 0.035774752 -0.04907272 0.12722056
0000d0 24 a1 32 be 9f 1f e1 bd c6 f2 0e 3e ad 80 e5 bd
       -0.17444283 -0.10992359 0.13959798 -0.112061836
0000e0 8a c3 1d be bc d6 07 3b 3b 26 84 be 93 e2 3a 3d
       -0.15406623 0.0020727357 -0.25810418 0.045626234
0000f0 01 3b bd bd 01 75 0f bd 72 3c 98 3d 3e 8f 5c bd
       -0.0923977 -0.035023693 0.07433404 -0.053847544
000100 d9 a3 51 be cb cf f9 bd 6b fe 15 3e 86 86 60 3d
       -0.20472659 -0.121978365 0.14647834 0.05481579
000110 21 73 aa 3d 42 cf e0 bd aa e6 cb 3a cf 9c 7d 3e
       0.0832274 -0.10977031 0.0015556414 0.24766849
000120 2a ec 17 3e d5 b6 f9 3d 36 1e 0a 3e 9c e8 c5 bd
       0.14836183 0.121930756 0.13488087 -0.09663507
000130 eb 9d e7 bd c5 e0 13 3e d4 d6 e6 3d 1f d5 09 bd
       -0.11309417 0.14441212 0.11271444 -0.033650514
000140 bb c0 de bc bd 5b b0 bd 07 05 54 be 43 1d 3b bd
       -0.02719151 -0.08611248 -0.20705043 -0.045682203
000150 af 32 95 bd af 1f 6a 3d dd 07 a3 bd 5c 80 cc 3d
       -0.07285058 0.057159122 -0.07960484 0.0998542
000160 16 31 68 3e 6c e1 4d bd 39 60 52 bd 5c 00 03 be
       0.22674975 -0.050263807 -0.051361296 -0.12793106
000170 6b f4 5f bd 2a 90 20 be e9 20 eb 3d 0b c5 a0 3d
       -0.054676455 -0.15679994 0.114808865 0.07850083
000180 2d 74 74 bc 8a 8f 70 3e dd 59 f3 3d 92 ce b4 3d
       -0.014920277 0.23492256 0.118823744 0.08828463
000190 fe 05 1b 3e 7f 09 d9 bd c2 5d 76 bd e6 26 00 3d
       0.15139005 -0.10597514 -0.06014801 0.031287096
0001a0 cd f3 a4 bc b7 bc 16 bd 4d 17 82 bd 5a 72 9f 3b
       -0.020135785 -0.036801066 -0.063521005 0.0048659267
0001b0 3f ad d1 bd d3 20 41 be 4f 93 d7 bd a3 ae ed 3d
       -0.10238122 -0.18860178 -0.10526144 0.11605575
0001c0 b1 7a 13 bd eb 95 3f 3d 2f 73 d6 bd da 18 fb bd
       -0.03600568 0.046773832 -0.10471188 -0.122605994
0001d0 93 d5 3d 3d 21 58 59 3e d9 bf 09 be 29 23 ac 3d
       0.04634626 0.21225025 -0.1345209 0.08405144
0001e0 17 a5 09 bd d4 62 0f be a9 d8 2b be 87 e3 cc 3d
       -0.033604708 -0.14002544 -0.16781868 0.10004335
0001f0 6f b2 b1 bd 7b fc 04 3e be 91 00 be 4f 45 fd 3d
       -0.08676612 0.12986939 -0.12555596 0.12366735
000200 70 54 b8 bd 65 48 ab 3d 3d 56 4b 3d 47 58 c5 bd
       -0.0900048 0.083634175 0.04964279 -0.09635978
000210 2d 51 97 bd 8a 30 00 bd 14 bd 6e 3d 82 ce c1 3d
       -0.0738853 -0.03129629 0.058285788 0.09463216
000220 83 d1 d0 bd e1 20 8f 3d 0d 35 90 bd e3 19 87 bd
       -0.10196211 0.06988693 -0.07041369 -0.065967344
000230 89 e4 05 3e a0 d5 d5 bd 7a f2 28 be 1d 7a 4a bd
       0.1307546 -0.10441136 -0.16498747 -0.049432863
000240 5b ec 32 bd 19 4a 46 3d ac 0e 7d bd 17 42 0e bb
       -0.043682437 0.04841051 -0.06178157 -0.0021706873
000250 a9 fc a7 bd 26 e0 ce bd 22 44 d2 3c 33 a6 8f 3d
       -0.08202488 -0.10101347 0.025667254 0.07014122
000260 8b fb d4 3c d7 f8 03 3e 8e 66 07 3c 53 45 e4 3b
       0.025998851 0.12887894 0.008264197 0.006966272
000270 cb 8c 0a be 16 37 21 be eb 9f fd 3d 5b 95 4f 3e
       -0.13530271 -0.1574367 0.123840176 0.20271818
000280 ed d7 7e bc 80 ed e9 bd 4c fb 24 3e 89 c2 e5 3c
       -0.01555441 -0.11422253 0.16111487 0.028046863
000290 10 dc 02 3e d6 7c 8c 3d d4 19 89 3d 68 cd a9 3c
       0.1277926 0.06859748 0.066943794 0.020727828
0002a0 05 25 aa 3c d6 a7 e2 3d 8f ca ca bc 76 98 44 be
       0.020769605 0.110671684 -0.02475479 -0.19198784
0002b0 80 30 8c bd 18 98 4d be a5 a3 d6 bd 6a 0b 60 bc
       -0.06845188 -0.2007755 -0.104804315 -0.013674596
0002c0 9f 01 c6 3d 48 b4 e8 bd 32 3a 6b be 08 6e 1a 3e
       0.09668278 -0.11362511 -0.22971418 0.15081036
0002d0 70 5b 14 3e 17 13 ce bd 9c 4d ec 3b 4c b7 84 3d
       0.14488006 -0.10062235 0.0072114 0.064802736
0002e0 5c e8 97 3d c3 d2 67 3c f0 da 65 3d e5 93 0d 3e
       0.07417366 0.014149371 0.056117 0.13825949
0002f0 af 32 a8 3d 98 4c d1 3d c2 98 08 3e bb 73 f5 bd
       0.08212792 0.10219687 0.13339522 -0.119849645
000300 5d de 36 3c b9 82 eb 3d 01 cc a4 bd c8 55 1e be
       0.011161414 0.11499543 -0.08046723 -0.1546241
000310 f6 de 22 be 28 48 3e 3d 80 f2 61 3e 90 e8 92 bb
       -0.15905365 0.046455532 0.22065163 -0.00448329
000320 7b 49 df bd ff f7 9d 3c d2 df 16 be 6a 95 2b 3d
       -0.10902687 0.019283293 -0.14733818 0.04189054
000330 79 ed ed bd 2a e9 b5 bd 16 9e 3c be cf b8 4a bd
       -0.1161756 -0.08882363 -0.1841968 -0.049492653
000340 a0 e6 b4 3d 9d 17 b4 3d fe 84 ff 3d 81 1b 53 be
       0.08833051 0.087935664 0.12476538 -0.2061596
000350 ff 6e 2d be d8 8b f7 3d a4 99 42 3e 31 d6 06 3e
       -0.16936873 0.1208722 0.19003922 0.13167645
000360 45 b3 15 be a8 d0 ab 3d 8a 76 0d be 11 da 3e bd
       -0.14619167 0.083894074 -0.1381475 -0.046594683
000370 9c de b7 3c 01 df c6 3d ed 79 dd bd 54 87 36 be
       0.022445016 0.09710503 -0.10814271 -0.17825061
000380 1f 74 35 be f0 e7 c1 bd fc 0d 01 3e 31 a2 7c 3d
       -0.17720078 -0.09468067 0.12602991 0.061678115
000390 6d f8 7d 3d 22 11 97 bd e5 70 e2 bd 98 e7 fd 3d
       0.062004495 -0.07376315 -0.11056689 0.123976886
0003a0 80 36 cc 3d cc 54 06 bc 8e ed d0 bc 26 ea 26 3e
       0.099713326 -0.008198928 -0.0255039 0.16300258
0003b0 80 62 43 3e ee b7 77 be 05 51 ca bd 99 89 c9 3d
       0.19080544 -0.24191257 -0.098787345 0.09840698
0003c0 cf dd 30 3e 37 e5 37 3d ff 2d d7 bc 1d 28 80 3d
       0.17272113 0.04489633 -0.02626705 0.06257651
0003d0 6e dc 4d 3e 30 51 89 bd 25 67 33 3d db dd 26 be
       0.20103619 -0.067049384 0.04379954 -0.16295569
0003e0 56 8e ba 3c 34 42 22 be 8b e5 b3 3d ea 50 07 be
       0.02277295 -0.15845567 0.08784016 -0.1321446
0003f0 53 51 6a 3d 3f 91 e7 bd 4c a3 a4 3d b4 86 18 bd
       0.057206463 -0.11307 0.08038959 -0.037237838

features.1.bn.weight f4 [64]
000000 34 69 82 3f ca 05 77 3f ac 20 75 3f 6e c9 86 3f
       1.0188355 0.9649321 0.9575298 1.0530221
000010 f9 ae 76 3f 86 b2 7d 3f ef de 7d 3f d6 94 7f 3f
       0.9636074 0.9910053 0.99168295 0.9983648
000020 97 7f 83 3f 79 61 82 3f 0b 2e 86 3f fc a5 7e 3f
       1.0273312 1.0185996 1.0482801 0.9947202
000030 d1 08 82 3f ce f9 80 3f 26 cb 71 3f ad da 80 3f
       1.015894 1.0076234 0.94450605 1.0066735
000040 eb 3e 86 3f 36 e6 7a 3f 0d 71 85 3f b9 7f 7b 3f
       1.0487951 0.98007524 1.0425125 0.98241764
000050 05 f4 80 3f d2 06 87 3f 76 1c 81 3f 38 28 84 3f
       1.0074469 1.0548956 1.008681 1.0324774
000060 3f 27 79 3f 74 92 73 3f 6b ac 7e 3f de 94 82 3f
       0.9732551 0.95145345 0.9948184 1.0201681
000070 14 6f 83 3f 04 5a 7f 3f ef 36 7c 3f da c6 78 3f
       1.0268273 0.9974673 0.9852132 0.97178423
000080 a9 87 88 3f f0 a3 70 3f d6 eb 82 3f 1a 9e 81 3f
       1.06664 0.9400015 1.0228221 1.0126374
000090 4f 29 79 3f f2 e4 83 3f 22 fa 83 3f 46 66 82 3f
       0.97328657 1.0304244 1.031071 1.0187461
0000a0 26 08 82 3f 7d b5 7e 3f 82 23 81 3f 0d e7 79 3f
       1.0158737 0.9949568 1.0088961 0.9761818
0000b0 4f 72 7f 3f 7e 98 82 3f d2 e2 7d 3f 76 36 76 3f
       0.99783796 1.0202787 0.99174225 0.9617685
0000c0 25 ae 83 3f 95 68 73 3f 5b a8 7e 3f 15 75 80 3f
       1.028752 0.95081455 0.9947564 1.0035731
0000d0 d6 48 7b 3f 42 a1 86 3f 49 f5 83 3f 4c 94 75 3f
       0.98158014 1.0517962 1.030923 0.9592941
0000e0 af a5 7a 3f f3 cb 7e 3f 4d a3 81 3f 2d c4 79 3f
       0.97909063 0.9952995 1.012796 0.97564965
0000f0 06 0f 7d 3f 02 cf 7b 3f 76 29 84 3f b0 85 87 3f
       0.9885105 0.98362744 1.0325153 1.0587673

features.1.bn.bias f4 [64]
000000 e0 c4 f9 bc 5c 5e a2 3c a1 b4 d9 3c 50 da e0 bd
       -0.030489385 0.019820385 0.026575388 -0.1097914
000010 17 15 12 bd 0c 70 c3 bc 7d 59 48 bb 57 b9 18 bd
       -0.035664644 -0.023857139 -0.0030570917 -0.03728613
000020 e1 92 dd bb 75 41 66 bd e6 34 d8 bc 5b 8d bc bc
       -0.006761894 -0.05621477 -0.026392411 -0.023016622
000030 69 cb d5 3c 9b 1b 38 bd fa bc 1d bd 93 97 f7 bc
       0.02609797 -0.0449482 -0.0385103 -0.030223643
000040 90 1e 7b bd 57 91 32 bc e3 00 0d bd 89 d4 57 bd
       -0.061308444 -0.0108989095 -0.034424674 -0.052692924
000050 a5 11 a5 bc e9 e5 a4 3c c7 83 f0 bc 3d c8 fc bc
       -0.020150015 0.020129161 -0.029359711 -0.0308572
000060 07 f9 85 3b 20 8d d3 bc 48 05 a8 bd 87 dd 92 bd
       0.0040885243 -0.02582413 -0.08204132 -0.07171159
000070 aa 7b 33 bd 74 e2 10 bd 69 b3 56 bd 78 1b 96 b9
       -0.043819107 -0.035372213 -0.052417193 -0.00028630695
000080 3f 6d b0 bc e0 22 89 bd f0 62 84 bd fc 0b fb 39
       -0.021536468 -0.06696105 -0.06464183 0.0004788338
000090 c3 4d e2 bd 7c ba 9a 3d 69 b1 27 3d c0 d5 03 bd
       -0.11049988 0.075551 0.040940676 -0.03218627
0000a0 34 6d 9b bc fb d4 7f bd 51 3d 45 bc 9f f8 07 bd
       -0.01897297 -0.062458973 -0.012038545 -0.033196088
0000b0 95 20 2f 3c 08 ac 64 3d e6 b4 76 bd 46 a9 78 3c
       0.0106889205 0.055828124 -0.060231112 0.015177077
0000c0 7c 36 3f 3d 83 ab 85 3c e1 b1 95 bc 19 8f 34 bb
       0.04668282 0.016317135 -0.018273296 -0.0027551113
0000d0 2c e6 45 bc 38 06 5a 3d 91 61 dd bc 9f db 21 bd
       -0.012078803 0.053228587 -0.027024062 -0.039516088
0000e0 62 45 94 bc 26 e0 f1 bd e8 e8 1e bd 1e 14 da bc
       -0.01809949 -0.11810331 -0.038796335 -0.02662092
0000f0 bc e7 1b bd 4e e7 98 bd c0 30 1f bc 1d 30 66 bd
       -0.038062796 -0.07465993 -0.009716213 -0.05619823

features.1.bn.running_mean f4 [64]
000000 9c c8 bd 3c 71 b6 04 be d5 b9 3a 3e c6 97 4a bd
       0.023166947 -0.12960221 0.18234952 -0.04946115
000010 54 57 29 bd 7b a1 34 3d a5 84 28 be d5 f8 fe 3d
       -0.04134305 0.044099312 -0.1645685 0.12449805
000020 89 53 d4 bd 86 58 5d be f6 1a ba 3d 8e c5 d7 3d
       -0.103674956 -0.216158 0.09087174 0.105357274
000030 fa bf 1f bd 0d bf 1c be 6a 7b b7 bc f0 63 66 3d
       -0.039001442 -0.15307255 -0.022397716 0.05624765
000040 82 77 a4 3d 1c 66 fc bd 4a 6e 41 bc 37 50 bd 3d
       0.08030607 -0.12324163 -0.01180608 0.092438154
000050 4b 7b e0 3d 83 60 b7 bd 29 44 17 bd 75 71 78 be
       0.10961016 -0.08953955 -0.036930237 -0.2426203
000060 2e e5 dd bd 3e c2 2a 3d 79 cc b1 bb ea 95 2d 3e
       -0.10834728 0.04168915 -0.0054259864 0.16951719
000070 42 a8 98 bd c7 2c 21 3d b6 4f e5 bd 33 34 9b bc
       -0.07453968 0.039349344 -0.11196844 -0.018945789
000080 1e 5a 14 3e a4 51 53 be cb b9 1b 3d 8b 21 95 bd
       0.14487502 -0.20636612 0.038018983 -0.072817884
000090 af ac 4a 3d ec b0 ac 3d 68 81 ef 3d 58 f9 d2 3d
       0.04948109 0.08432183 0.11694604 0.10301465
0000a0 6b 2d ae bd fd 11 30 3d b8 ff 3f bd 6f 55 8e 3d
       -0.085047565 0.042985905 -0.04687473 0.06949889
0000b0 e6 13 9c bd 28 a0 63 3e 22 89 cd bd 7d 27 d7 bd
       -0.07620983 0.22229064 -0.10035922 -0.10505579
0000c0 8a 58 c4 bd 45 f9 f8 bd e1 48 81 bd f8 2e 08 3d
       -0.095872 -0.121569194 -0.06312729 0.033247918
0000d0 f5 8a d8 bd f2 87 ed 3d 9c 99 29 bd ca 33 9f bc
       -0.10573379 0.11598195 -0.04140626 -0.019433875
0000e0 8c 59 02 3b 4e 95 02 3e 1b 71 54 bd 98 e1 25 bd
       0.00198898 0.12752268 -0.05186568 -0.040498346
0000f0 e0 84 00 be e4 3b 2c be 84 81 36 3e f6 a1 24 bc
       -0.12550688 -0.16819721 0.17822844 -0.01004838

features.1.bn.running_var f4 [64]
000000 92 62 c0 3c 9e dd 28 3d 5d 3c 2f 3d fb 2a 16 3d
       0.023484502 0.041226976 0.042782176 0.036662083
000010 32 a0 f1 3c 4a 8e 66 3d 10 64 12 3d 27 b6 41 3d
       0.029495332 0.05628804 0.03573996 0.047292855
000020 10 7d 1b 3d e3 c6 2d 3d b8 be 5b 3d f7 e4 2b 3d
       0.037961066 0.042426 0.05364868 0.041966405
000030 8c df f1 3c ea 9e 18 3d 27 22 55 3d 16 18 11 3d
       0.02952554 0.037260927 0.052034523 0.03542336
000040 bc 74 d7 3c 3b 9b 2a 3d 2e 2f 06 3d 82 c3 47 3d
       0.02630078 0.041651946 0.032759838 0.048770435
000050 ae 15 17 3d 37 34 0e 3d 18 f8 17 3d fc 19 f7 3c
       0.03688591 0.034717765 0.037101835 0.030163758
000060 f9 ec 3a 3d c3 05 01 3d 8f 4d 18 3d 34 ac 07 3d
       0.04563615 0.031499635 0.03718334 0.03312321
000070 6a 96 0b 3d 1f 3d 55 3d 47 f8 22 3d 33 7a 06 3d
       0.034078993 0.052060243 0.039787557 0.032831382
000080 3f 70 04 3d 60 7e 28 3d 4b 2d ed 3c 7b fc 91 3d
       0.03233361 0.041136146 0.028952261 0.07128235
000090 1f 6b 24 3d 14 2e dc 3c d1 cf 4b 3d 1b 08 05 3d
       0.04014122 0.02687744 0.049758736 0.032478433
0000a0 32 40 65 3d 71 6d 1a 3d ac af f9 3c 0b 76 16 3d
       0.055969425 0.037702028 0.030479275 0.03673367
0000b0 f7 03 2f 3d c0 25 4d 3d 73 65 5e 3d c1 26 15 3d
       0.04272839 0.05008483 0.05429597 0.03641391
0000c0 7f 0d f9 3c 81 37 c4 3c ab 5f 60 3d 2b 1c 3e 3d
       0.030401943 0.023952248 0.054778736 0.04641358
0000d0 74 de 28 3d 33 63 0c 3d cf 97 03 3d 28 94 63 3d
       0.041227773 0.03427429 0.032127198 0.055561215
0000e0 1f 76 5c 3d 5b 0c 65 3d 9f e6 f9 3c e7 87 3e 3d
       0.053823587 0.055919986 0.030505477 0.046516325
0000f0 1b 50 ad 3c ef 8a 26 3d b1 fc 2e 3d 75 5f 18 3d
       0.021156361 0.04065984 0.042721454 0.03720041

features.2.depthwise.weight f4 [64, 1, 3, 3]
000000 b3 b4 ec 3d 03 e6 9b be 57 a7 5b 3e 3e 0d 5d bc
       0.11557903 -0.30448923 0.21450554 -0.013491927
000010 7c 04 3b be b6 bb 9e 3e 56 1f 7d be 69 ac 58 3e
       -0.1826343 0.31002587 -0.24718985 0.2115952
000020 63 ba 9b be 84 43 e2 bd 35 a4 9a be c8 2a 80 3e
       -0.3041564 -0.11048034 -0.30203405 0.2503264
000030 63 95 bb 3d ba af 79 3e 1f dc 8b 3d 11 45 23 be
       0.09159353 0.2438344 0.06829094 -0.15944315
000040 43 35 a7 3d 4a 21 53 3e 18 28 5b be 99 7b 6e be
       0.08164456 0.20618168 -0.21402013 -0.23289336
000050 b9 d6 d5 bd 1a 5f 44 be 3f ba 7a bd a3 d5 a3 3e
       -0.10441346 -0.19176903 -0.061212774 0.3199893
000060 64 9f 3f 3e ac 53 65 be 02 af 28 be 4b 9b b1 3e
       0.18713146 -0.223952 -0.1647301 0.34688792
000070 99 89 00 bc 4b 16 43 be 32 52 90 3d 1c 7c 4f bd
       -0.007845306 -0.19051473 0.070469275 -0.05065547
000080 5e 32 d8 3d 1f 0b 86 bd ad dd 32 3e 16 b8 5a 3e
       0.10556482 -0.0654509 0.17467375 0.21359286
000090 3d 15 18 3e ea 0d da 3d e5 9f 90 bd 12 d5 8d be
       0.14851852 0.10647185 -0.070617475 -0.27701622
0000a0 e5 92 92 bc 31 45 63 be c0 47 42 be 0f 25 9a be
       -0.01789231 -0.22194363 -0.18972683 -0.30106398
0000b0 00 57 13 bd 14 67 66 be 59 aa c2 3d b2 9a e3 3d
       -0.03597164 -0.22500259 0.095051475 0.1111349
0000c0 81 04 2a 3e 9b dc a4 be c4 f4 98 3e e7 70 24 3d
       0.1660328 -0.3219956 0.2987424 0.040146735
0000d0 cc ab b5 3e aa 8f 1c 3d 70 71 27 3d a9 6c b4 bd
       0.35482633 0.038222946 0.040879667 -0.08809788
0000e0 ed 1f 8f 3e 2d 94 3a be 7c 75 85 3e 31 e2 85 3e
       0.27954045 -0.18220587 0.26066196 0.26149133
0000f0 0d 73 88 3d 31 fd 7d be 53 b4 89 be 92 0c 5f bd
       0.06662569 -0.24803616 -0.2689539 -0.054455347
000100 52 f8 94 3e 69 27 5e 3c 6b b1 e3 bd 2b 64 57 be
       0.29095703 0.013559201 -0.11117824 -0.21034305
000110 6c 37 13 bc f6 66 0d 3e f5 6f be 3d 49 69 8f 3d
       -0.008985382 0.13808808 0.09298698 0.070025034
000120 e7 37 9d be 99 b2 07 3e 73 7b 8a 3d 51 e6 9b be
       -0.30706713 0.13251723 0.06761827 -0.30449155
000130 b6 27 8c 3e ff 12 4c 3e 37 45 cd 3d ed a5 31 be
       0.27374047 0.19929121 0.10022967 -0.17348452
000140 f8 d3 98 3e 9a c0 b7 3e a6 f4 75 3d 71 d4 ac 3e
       0.2984922 0.3588913 0.060047768 0.3375583
000150 e1 78 1e 3e 54 94 3d 3e f8 78 78 bd 1d a9 20 bd
       0.15475799 0.18513614 -0.06066224 -0.03922378
000160 cd 2a 43 3e 69 91 0b be 1f 49 99 be db 08 4a 3e
       0.19059296 -0.13629688 -0.299386 0.1972994
000170 47 9d ac bd 04 5e 7c 3e 1e f9 be bd 2d 4b 69 be
       -0.08428436 0.24645239 -0.09324859 -0.22782584
000180 c8 f9 87 bc a0 9e 9c bc 24 22 90 3d 8a 77 67 be
       -0.016598597 -0.019118607 0.07037762 -0.22604194
000190 d2 e3 8b be 93 9b f6 3c 5e 66 b1 3e 39 55 07 be
       -0.2732225 0.03010348 0.34648412 -0.13216104
0001a0 97 68 56 be 00 7b de bb 94 95 90 3e a2 73 66 3e
       -0.20938335 -0.006789565 0.2823912 0.22505048
0001b0 18 40 d4 bd af 90 a5 bc e5 d2 8c be d1 f8 af 3e
       -0.103637874 -0.020210592 -0.2750465 0.3436952
0001c0 d0 67 b4 3d f1 6a 1d 3e 9f 9a a4 be 50 fc 68 3e
       0.08808863 0.15372826 -0.32149217 0.227525
0001d0 af 4f 41 be 38 a9 3e 3d fa 9c 0e 3e df a7 80 bd
       -0.18878053 0.0465481 0.1392707 -0.06282019
0001e0 32 1c 0d be fa b1 08 3e f9 69 90 3e e0 7e a4 3d
       -0.13780287 0.13349143 0.2820585 0.08032012
0001f0 3d 8b 74 be d7 3f 5a be 12 80 7d be 86 8a cd bd
       -0.2388124 -0.21313415 -0.24755886 -0.10036187
000200 9e ee 81 be 17 c3 95 bd a6 b8 58 be e2 74 5d 3e
       -0.25377363 -0.07312601 -0.21164188 0.21626619
000210 f3 fa 5c be 0a 96 5c be f2 0a 7c be 40 10 1a be
       -0.21580105 -0.2154161 -0.2461355 -0.15045261
000220 7e fd 05 3d ea 9d 6f 3e 1f 5c c0 3e ad 69 de bd
       0.032712452 0.23400083 0.37570283 -0.1086
000230 db a7 56 3d 94 71 7d 3d c7 91 65 3e 56 2c a5 3d
       0.052406173 0.061875895 0.22418891 0.08065097
000240 84 63 38 3e 97 39 93 3e 4e ff 8d 3e 17 60 a4 bc
       0.18006712 0.28754875 0.27733845 -0.02006535
000250 9b a0 67 3e c7 11 77 be 3a 63 83 bd 4e fa f7 bd
       0.2261986 -0.24127875 -0.0641541 -0.12108289
000260 73 6e 18 be 1d 89 82 3a 5c 81 9a be de 9a 17 be
       -0.14885883 0.0009959076 -0.30176818 -0.14805171
000270 82 1d 85 bd 9e e6 0b 3e 70 57 66 3e 3b 40 87 be
       -0.06499769 0.13662192 0.22494292 -0.2641619
000280 e2 a5 4f 3d ec 1f 10 3e 76 00 3a be 49 a2 63 3d
       0.050695308 0.14074677 -0.18164238 0.05557469
000290 c7 42 18 be 34 8c 00 bc 8f 90 37 be b3 3d bf bd
       -0.14869224 -0.007845927 -0.17926238 -0.0933794
0002a0 f5 fb c0 bd ae 3a bc 3e bf 9f 06 3e 2e 24 b8 be
       -0.09423057 0.3676352 0.13146876 -0.35965103
0002b0 25 0c 4b 3d 30 74 08 3e ce f2 f9 bd 0c 20 3e be
       0.04957213 0.13325572 -0.122045144 -0.18566912
0002c0 23 56 ce bd 83 a3 92 be c4 19 c6 bd 4f 41 bb 3b
       -0.10075023 -0.28640375 -0.09672883 0.0057145725
0002d0 6a 64 82 be ce be a4 be f8 cf 4a be 24 37 7d be
       -0.25467235 -0.32176822 -0.19805896 -0.24728066
0002e0 64 bc 35 3d 87 e5 97 3d c8 a6 71 3e 47 c6 ad 3e
       0.044369116 0.07416826 0.23598778 0.33940336
0002f0 a6 ef 59 3e 08 a3 25 be 2d 45 c1 bc 38 54 32 be
       0.21282825 -0.16175473 -0.023592556 -0.1741494
000300 e4 81 5b 3e a9 83 3a 3d 20 af 48 3e 0e 4b 67 be
       0.21436268 0.045535717 0.19598055 -0.22587225
000310 99 46 9e 3e e1 f6 b0 be f8 7a 02 3e be 94 97 be
       0.30913237 -0.34563354 0.12742221 -0.2960567
000320 b3 de 61 3e 64 ac 20 be f2 5a 9e be 76 12 fd 3d
       0.2205761 -0.15690762 -0.3092876 0.12357037
000330 65 36 ac 3e d3 9a 94 3c 18 72 46 3e 75 e1 6b 3e
       0.3363525 0.018140232 0.19379461 0.23035224
000340 31 d8 97 be 97 d9 82 3d f8 85 ca 3d 77 10 26 be
       -0.29657128 0.06389158 0.09888834 -0.16217218
000350 41 b7 6b 3e b4 a6 a5 3e 75 de a2 3e cd ad 9c be
       0.23019125 0.32353747 0.31810346 -0.3060135
000360 ff d9 7d 3e aa bc 7d 3e 2b 5d 99 3d b3 34 53 bd
       0.2479019 0.24779001 0.074884735 -0.05156393
000370 f0 0e 81 3e d0 53 61 be c7 92 6f be 2a 82 83 3e
       0.2520671 -0.22004628 -0.23395835 0.25685245
000380 c2 bf 30 3e b4 08 df bd 10 4b 84 3e c9 20 15 3e
       0.1726065 -0.10890332 0.25838518 0.14563288
000390 fb 3b 03 3e 3b bb 3d 3e 4a c9 b5 3e 91 b5 75 3e
       0.1281585 0.18528454 0.35505134 0.23995043
0003a0 b4 63 76 3e 12 d9 3b 3d 63 56 67 3e fc 73 4a 3e
       0.24061471 0.04586131 0.22591548 0.19770807
0003b0 3d 87 f6 bd d9 29 34 3e 15 bf 26 3e a7 82 01 be
       -0.120375134 0.17594089 0.1628383 -0.12647496
0003c0 a8 9b 75 3e 5b 81 2b 3d de b1 9d 3e 09 e8 98 3d
       0.2398516 0.04187141 0.30799764 0.07466132
0003d0 7a bf 9a 3d 6f 86 47 3e ae 99 f0 bd 89 b4 86 3e
       0.075560525 0.19484876 -0.11748062 0.26309612
0003e0 42 19 52 be 83 2b c6 bd d5 e7 8c 3d 5a 67 3b 3e
       -0.20517448 -0.09676268 0.06880156 0.18301144
0003f0 5b d9 a5 3d e8 af a7 3e ec 16 64 be bc 86 b5 bd
       0.08098098 0.32751393 -0.22274369 -0.08863589
