model.pth (torch, 114585 bytes, 33 tensors)

stem.0.weight f4 [16, 4, 3, 3]
000000 cb 9a 74 3e 46 fc 64 3b a3 40 27 bc c3 bb df bd
       0.23887174 0.0034940406 -0.010208282 -0.109244846
000010 23 ef 48 3d bc 5f d0 3d 03 29 31 be 30 16 54 3d
       0.049056184 0.1017451 -0.17300801 0.051778972
000020 8a 06 be 3d 82 22 36 3e 67 f5 99 3d f5 b5 11 3c
       0.09278591 0.17786601 0.0751751 0.00889348
000030 63 ef 85 bb e7 3c 10 be 17 3f dc 3d 42 9f 47 be
       -0.004087375 -0.14085732 0.10754221 -0.19494346
000040 0e cb 1a be cb de fb bd d9 01 20 bd d0 ee 3e 3d
       -0.15116522 -0.12298354 -0.039064262 0.046614468
000050 00 12 68 3e 4a ae c8 bd f3 f9 b4 3d 4d 89 19 bd
       0.22663116 -0.09798868 0.088367365 -0.037484456
000060 5c 2d af 3d 46 e1 bf 3d d5 52 af 3d 56 01 bb 3d
       0.085535735 0.093691394 0.08560721 0.09131114
000070 7b 56 20 be 0f 2d 20 3e ab d1 39 be 84 f0 07 be
       -0.1565799 0.15642188 -0.18146388 -0.13275343
000080 e1 c7 c4 bd 7e 88 3b bd d4 9c b3 3d 89 44 50 3d
       -0.096084364 -0.045784466 0.08770147 0.05084661
000090 6b 72 5e be 99 9b 1f 3e ce 38 3b 3e a2 53 f2 3d
       -0.21723334 0.155867 0.18283388 0.11832358
0000a0 7e 22 3e be d0 7d f2 3d b5 88 06 3e 69 12 0b bc
       -0.18567845 0.11840403 0.13138087 -0.008488276
0000b0 f6 be bc bd 16 c6 16 3d 82 eb 82 bd ae 71 15 be
       -0.092161104 0.036810003 -0.06392576 -0.14594147
0000c0 8a 6f 14 3e 09 81 92 3d 98 42 77 3d ed f7 13 3e
       0.14495674 0.07153518 0.060366243 0.14450045
0000d0 56 0a c2 3d 4c 32 7a 3a a1 7f af 3c c4 5b 03 3e
       0.09474628 0.0009544238 0.021423163 0.12827975
0000e0 6d 54 fd bc 79 35 ad bd d2 4d 10 be 85 40 fc bd
       -0.030924046 -0.08457465 -0.14092186 -0.123169936
0000f0 3c 69 a4 bc 62 52 02 3e 2d 13 0a 3e 53 7f 28 3e
       -0.02006971 0.12726739 0.13483877 0.1645482
000100 fe d4 3d 3d ee 0a 0f be fd da 4b 3e af 77 ed 3c
       0.046345703 -0.13969013 0.19907756 0.028987734
000110 b3 a0 1e be 33 d1 3f be 6a 48 27 be 56 02 8d bd
       -0.1549099 -0.18732147 -0.16336218 -0.06885211
000120 53 bc 1f 3e 4b 79 89 3c c2 3f dc bd df 7a 79 3d
       0.15599184 0.01678147 -0.10754348 0.060908195
000130 e3 c9 fa bd 13 60 2c 3d 38 21 30 3e f0 84 42 3d
       -0.12245538 0.04208381 0.17200172 0.04749006
000140 d0 d3 d5 bd a0 74 9c 3b c5 03 a2 3d 4a 95 76 3d
       -0.10440791 0.004774645 0.07910875 0.060200967
000150 e1 b0 8c bd 13 95 06 bd 3e 7c 89 bd 02 66 8c bc
       -0.068696745 -0.032857012 -0.067131504 -0.017138485
000160 d0 b2 38 be d9 3a 44 be ce cc 52 3e 7a 87 18 be
       -0.18036962 -0.19163074 0.2058594 -0.1489543
000170 d8 17 97 3d 4a 55 01 3e 70 96 51 bd b1 49 d8 bd
       0.07377595 0.12630191 -0.05116886 -0.105609305
000180 40 2a 33 3c ab 58 1a bd ed 69 29 be b3 eb 5a 3e
       0.010935366 -0.037682217 -0.16544314 0.21378975
000190 9f b3 0a bd c8 b0 58 bd 63 51 a8 bd 2f c3 63 3d
       -0.033862706 -0.052902967 -0.08218648 0.055606063
0001a0 5a f8 7e 3d 63 aa 38 3e ed 67 66 bd a4 d0 b2 3d
       0.062248565 0.18033747 -0.056251455 0.08731201
0001b0 24 e7 c2 bd a3 db 35 3d 55 a8 9a bc 60 5a 06 be
       -0.09516743 0.044398915 -0.018879095 -0.13120413
0001c0 3f 29 1c 3d 29 e4 06 bd 22 e2 c0 bc 4a eb 4e be
       0.038125273 -0.032932434 -0.023545329 -0.20206943
0001d0 d6 6c 0a be 2a 87 09 3e ea c1 aa bc 4a bc d0 bd
       -0.1351808 0.13430467 -0.020844419 -0.10192163
0001e0 ee 2b fc bd f7 c7 27 3e 56 6c 2e bc 46 d3 35 be
       -0.123130664 0.16384874 -0.0106459465 -0.17756376
0001f0 3d e9 46 be 9a 60 1a be 10 a1 ab bd f7 cd 5b bd
       -0.19424911 -0.15075913 -0.083803296 -0.05366322
000200 36 c1 c1 3d 5b 76 c5 ba d4 03 d1 3d 69 ef 2c bc
       0.0946068 -0.001506518 0.10205808 -0.010555127
000210 32 ab 97 be f0 94 54 be f0 34 1d be 5b 7b 01 be
       -0.296228 -0.2075994 -0.15352225 -0.12644713
000220 ba e9 d8 bd 73 ed 3b 3d 9b 50 ca 3c 59 78 01 3e
       -0.10591455 0.045880746 0.024696639 0.12643565
000230 61 96 67 3c f0 98 08 be 91 15 00 be 70 49 a0 3c
       0.014134974 -0.13339591 -0.12508227 0.019566268
000240 a9 66 06 bd 07 bf 9f bd b5 12 7d bd a0 05 12 be
       -0.032812748 -0.078001074 -0.06178542 -0.14259958
000250 ee 31 30 be 73 01 15 be cb db 6b 3d 0f b4 36 be
       -0.17206547 -0.14551334 0.057582658 -0.17842124
000260 2c 4a b8 bd e0 f0 9d bd 86 72 28 3e f4 fb 0e be
       -0.08998522 -0.07711959 0.16449937 -0.139633
000270 16 fc d1 3c a2 46 3c be a5 55 8a bd 0c 82 2e be
       0.0256329 -0.1838632 -0.06754617 -0.17041796
000280 69 3c 1f be 0c 9b 33 be 4f dd 9b 3d 22 8d 35 3e
       -0.15550388 -0.17539614 0.07610571 0.17729619
000290 87 b8 98 3c a0 41 3d 3e c1 2e 0f 3d 84 42 36 be
       0.018642677 0.18482065 0.034956697 -0.17798811
0002a0 bd 12 25 be ad ab ba bc 62 be 69 be 00 1a c1 3d
       -0.1612043 -0.02278694 -0.22826532 0.09428787
0002b0 dc f8 bd bc ca f8 70 bd 86 26 e3 3c 55 72 28 bd
       -0.023189954 -0.058831014 0.02772833 -0.04112466
0002c0 f3 80 12 3e ea 4d 53 be 2b 5d 04 3e d1 0f 44 bd
       0.14307003 -0.2063519 0.12926166 -0.047866646
0002d0 4e 36 7e 3d ca 09 06 3e 98 65 4e be 54 ae 37 be
       0.062063508 0.13089672 -0.20155942 -0.17937595
0002e0 8c a5 18 be 97 c6 f9 3d 62 d8 24 be 36 32 b1 bc
       -0.14906901 0.12196081 -0.16098168 -0.021630388
0002f0 46 69 c0 3d a9 14 15 be 24 4b 55 3e 2a 3c 78 3d
       0.09395079 -0.14558662 0.20829445 0.060604252
000300 58 63 fa bc e9 00 a0 bb 00 10 c1 3d 9c d9 d6 3c
       -0.030564949 -0.004882921 0.0942688 0.026226811
000310 c6 6a 5b be 51 f1 da 3c 6b 2f e5 bd 66 0d 4a 3e
       -0.2142745 0.026726397 -0.11190685 0.19731674
000320 3a 43 11 3e ae 09 fb bd 90 b7 4d 3d 67 d1 05 3b
       0.14185801 -0.12257706 0.050223887 0.0020419003
000330 0b d3 ca 3d 0e 07 d3 bd 83 1f 23 be ec ba bf 3d
       0.099035345 -0.1030408 -0.1592999 0.093618244
000340 57 0f 20 3e be 71 23 3e 14 2d 26 3d c0 93 c0 3b
       0.15630852 0.15961358 0.040570334 0.005876988
000350 0f eb 1c 3e 93 f3 25 3b e0 82 43 3e 2e 19 9e 3d
       0.15324043 0.0025322184 0.19092894 0.077196464
000360 77 b3 7b 3d 9f c5 5b bd 91 e2 5d be df fc b2 bd
       0.061450448 -0.053655263 -0.2166846 -0.087396376
000370 23 85 e5 3d cc 97 11 3e dc bf 11 3e 38 ae f0 bd
       0.112070344 0.14218062 0.14233345 -0.117519796
000380 3d 99 01 3e 67 99 12 ba 1f 7c 26 be a3 9b 92 bb
       0.12656112 -0.0005592317 -0.16258286 -0.0044741197
000390 c1 b5 34 3e df b1 30 be 4d 4c 34 3d 67 63 08 3e
       0.17647459 -0.17255352 0.04401808 0.13319169
0003a0 d0 1a eb bd e9 fd 24 3e 10 0f 1b 3e a7 cc 41 3e
       -0.114797235 0.16112484 0.15142465 0.18925725
0003b0 20 c6 de bd 3d d8 9b 3b 43 27 2c 3e 77 56 4f 3e
       -0.10877633 0.004756002 0.16811852 0.20247827
0003c0 98 5f d2 bd 8c ac df 3d 8e 8a ca 3d ec 24 13 bd
       -0.10272139 0.109215826 0.098897085 -0.035923883
0003d0 c6 28 14 3e cc 0f e6 3d 44 90 c1 bd b1 95 a5 bd
       0.14468679 0.11233482 -0.094513446 -0.08085192
0003e0 f5 11 3d bd 3a a4 46 be 1a 97 0f be 40 0a de 3c
       -0.046159703 -0.19398585 -0.14022484 0.027104497
0003f0 6c de 3f 3d a1 89 d4 bd ba d3 49 bd 3f 4a 47 3e
       0.046842977 -0.10377813 -0.049274184 0.19461916

stem.1.weight f4 [16]
000000 cd 6e 81 3f 4f 9b 7a 3f 5d be 73 3f 3a 7b 87 3f
       1.0111939 0.9789323 0.95212346 1.0584481
000010 51 66 89 3f 47 ed 74 3f 1b 86 79 3f 1d e7 70 3f
       1.073435 0.95674556 0.97470254 0.9410265
000020 98 ce 7a 3f f2 ad 7b 3f 89 61 88 3f 6f 81 7d 3f
       0.9797149 0.98312294 1.0654765 0.99025625
000030 77 54 7e 3f da b3 82 3f c6 38 7e 3f e2 98 83 3f
       0.99347633 1.0211136 0.9930538 1.0281031

stem.1.bias f4 [16]
000000 ff 43 a2 bd 66 9e 5d 3d 8f e3 a6 bd cc bc 39 bc
       -0.079231255 0.05410614 -0.08148872 -0.011336517
000010 dd e1 54 bc 71 af 9f 3c 1a 77 aa bd 1d 54 94 bd
       -0.012993303 0.019492837 -0.08323498 -0.07242606
000020 d7 42 65 be 00 23 27 bd 69 e5 2a 3d 97 c9 1f be
       -0.22388779 -0.040804863 0.04172269 -0.15604244
000030 9f d2 7a bd 71 04 08 bd af c4 d3 3b dc da a0 3d
       -0.06123602 -0.03320736 0.0064626555 0.07854244

stem.1.running_mean f4 [16]
000000 bb 2b 42 3d ce 2c 71 3d b6 9f c8 3b 0b c5 dd be
       0.047404986 0.05888062 0.0061225547 -0.43314394
000010 d7 0a c3 be 72 ed fc 3d 69 f9 df 3d 89 bd f6 3c
       -0.38094208 0.123499766 0.10936243 0.030119674
000020 e4 1e 31 bd 1c a0 44 3d 76 53 00 be 08 47 e7 ba
       -0.04324235 0.048004255 -0.12531838 -0.001764507
000030 a8 13 25 3d a9 fc 49 be 39 72 5d 3e 3f 73 91 3b
       0.04030195 -0.19725288 0.21625604 0.0044387872

stem.1.running_var f4 [16]
000000 f8 42 3d 3c 48 e5 9b 3b c7 e6 84 3c 8a 44 92 3d
       0.011551611 0.004757557 0.016223324 0.07141979
000010 7a 6a 7c 3d f4 d8 91 3c 4d 45 eb 3b f9 fb 8b 3c
       0.06162498 0.017803647 0.007179892 0.017087923
000020 7e 41 37 3b c8 75 25 3c 9e 09 38 3c 60 e0 7b 3b
       0.002796262 0.010098882 0.011232762 0.0038433298
000030 8f bf 3a 3c 7b 05 f8 3c f6 f3 19 3d b5 82 ca 3c
       0.01139821 0.03027605 0.037586175 0.02472053

features.0.depthwise.weight f4 [16, 1, 3, 3]
000000 92 1e 5f 3e 77 cf 6e 3e b1 ff 10 3e 9e 4f 83 3d
       0.21789005 0.23321329 0.14160039 0.0641167
000010 be 31 2a 3c e0 0d ad be c9 3c 35 be 25 b9 85 3e
       0.010387836 -0.33799648 -0.17698969 0.26117817
000020 6c f0 6b 3e 78 88 dc 3d 5b bd ba 3d 19 fa ae be
       0.23040932 0.10768217 0.09118148 -0.34175184
000030 ce 55 61 3e f1 d1 3e be 71 da 4e be 5c 8e 92 3e
       0.22005388 -0.18634774 -0.20200516 0.28624237
000040 94 7e 08 be 63 24 2b be 27 ab 3c 3d 95 95 83 3e
       -0.13329536 -0.16713099 0.04606166 0.2570006
000050 a1 c3 8d 3e 61 da 0a 3d 27 66 83 3e 17 81 6b 3e
       0.27688316 0.03389967 0.25663874 0.22998463
000060 a1 ae 3e 3c 2a 0e 67 be 6a 3e d3 bb 7f d3 b6 bd
       0.011638314 -0.22563997 -0.0064466493 -0.089270584
000070 04 12 2d 3d 19 39 9e be 2e ae a1 be b7 d4 9d be
       0.04225351 -0.30902937 -0.315782 -0.3082635
000080 b3 a0 73 be 97 6b 87 3e 2d b6 c0 be db 4a b4 bc
       -0.2379177 0.26449272 -0.3763899 -0.02200835
000090 ef a1 8f be cd f7 c8 bd 93 7d d1 bd 1f ad 3d 3e
       -0.28053233 -0.09812889 -0.102290295 0.18523072
0000a0 f0 79 82 3e 71 c4 1d be 75 96 53 3d f9 9e 41 bc
       0.25483656 -0.15406968 0.05165716 -0.011817687
0000b0 51 0d ab 3e 52 d8 cb 3d 9a 60 28 bd 30 28 3b 3e
       0.33408597 0.09953369 -0.04110775 0.18277049
0000c0 18 65 97 be 96 aa 03 3e 6a 84 73 3e f5 5a 7e be
       -0.29569316 0.12858042 0.2378098 -0.24839385
0000d0 f6 ba b0 3d 54 52 2b 3e b0 25 97 be 0b 85 03 3e
       0.0862941 0.16730624 -0.2952094 0.1284372
0000e0 aa 0c 9b 3e 14 b3 29 3d 6b 74 b9 bd ff ff dc bd
       0.302831 0.041430548 -0.09055408 -0.10791015
0000f0 16 94 3e be c7 9c 8d bb e2 21 97 be 94 f2 80 be
       -0.18611178 -0.004321668 -0.29518038 -0.25185072
000100 85 57 da bd 6a 26 a6 be 16 62 aa 3e f1 0a 97 bd
       -0.10661224 -0.32451183 0.3327796 -0.07375134
000110 aa 46 38 be ed 64 e5 3d ab aa af 3d 12 e5 69 3e
       -0.17995706 0.11200891 0.08577474 0.2284129
000120 00 51 1c be ca 26 fb bd 29 64 9c be 5d c3 95 be
       -0.15265274 -0.12263258 -0.30545166 -0.29250613
000130 db a3 14 be 59 da 17 3d 6d e6 2e be c5 aa bd bd
       -0.14515631 0.037073467 -0.17080088 -0.09261087
000140 88 20 e5 3d 3b 37 a2 3d 86 36 01 3e c8 92 f3 3d
       0.111878455 0.079206906 0.12618455 0.11893231
000150 87 36 64 3e 2e 3b 5a be 45 0e 31 3e 87 9a 96 be
       0.22286426 -0.21311638 0.172906 -0.2941477
000160 16 56 19 3e 13 47 5f be f7 b7 31 bd 2d fc d6 be
       0.14974245 -0.21804456 -0.043388333 -0.4198927
000170 f1 72 84 bd c3 72 83 3e 76 7e 1e be b1 90 44 3e
       -0.06467236 0.25673494 -0.15477929 0.1919582
000180 08 16 21 be d9 87 ab 3e aa a3 a4 3e 35 df 2b be
       -0.1573106 0.3350208 0.32156116 -0.16784365
000190 7c f7 4d bd 2a 70 e8 bd 11 66 2e be a6 59 dc 3d
       -0.050284848 -0.113495186 -0.17031123 0.107592866
0001a0 94 e8 9c be fb 55 14 be 90 d9 61 bd 44 15 b2 be
       -0.30646193 -0.14485924 -0.055139124 -0.3478185
0001b0 56 de 82 be cc 52 30 3e 6f 35 90 be 73 0f 6a 3e
       -0.25560254 0.17219085 -0.28165767 0.22857456
0001c0 b2 fe 85 be e6 04 85 3d a1 81 72 3e f2 ba ba be
       -0.2617088 0.06495075 0.23682262 -0.36470753
0001d0 1d 6f 8c be 6f 32 2e 3d d2 28 4a be 9c 25 30 3e
       -0.27428523 0.042528566 -0.19742134 0.17201847
0001e0 c9 ef 7f 3e 4f 3a f0 3c 00 7b b3 3d 16 0d 74 3e
       0.24993815 0.029324679 0.08763695 0.23833117
0001f0 04 6e 17 3e 49 7a 68 3e 77 31 53 be b4 f0 89 3e
       0.14788061 0.22702898 -0.20624338 0.26941454
000200 99 af b0 bd 9d 26 33 3e fc ed 82 be d4 56 86 be
       -0.086272426 0.17495199 -0.25572193 -0.2623812
000210 5c 21 51 be 6d 21 36 3e 94 8b 54 3c 98 11 a9 be
       -0.20422882 0.17786188 0.012972731 -0.33021235
000220 13 c3 b2 3e 31 55 36 3e 0c d6 a4 3e cf b6 af bb
       0.34914455 0.17805935 0.32194555 -0.0053623687
000230 5f 10 0e 3d 20 04 7a 3e cf d9 59 be 77 bc a5 3e
       0.03468358 0.24415636 -0.21274494 0.3237035

features.0.pointwise.weight f4 [32, 16, 1, 1]
000000 a3 39 28 be ed 4d e3 3c be da 14 be 3b e2 45 be
       -0.16428237 0.027747119 -0.14536569 -0.19324581
000010 f3 37 20 3e 54 19 c1 bd aa c3 f4 bd fd b0 61 3e
       0.15646343 -0.09428659 -0.119513825 0.22040172
000020 25 48 97 3e 43 bb 94 be 52 f5 6e bc ed ff ee 3d
       0.2954723 -0.2904912 -0.014584856 0.11669908
000030 aa db 46 3e d2 b2 b6 bd a5 f3 1e 3a 95 2e 42 be
       0.19419733 -0.08920826 0.00060635275 -0.18963082
000040 a4 8a 58 3d 73 9c 84 3d 15 17 60 bd 22 e8 3f bd
       0.052866593 0.06475153 -0.054709513 -0.04685224
000050 db b2 7e be 2b f8 0b be 89 86 9a bd 44 05 31 3e
       -0.24872915 -0.13668887 -0.07545192 0.17287165
000060 99 fb 2c 3e 7e d2 0d 3e df 07 3e be 6b d4 ec bc
       0.16892852 0.13849828 -0.1855769 -0.028909883
000070 01 85 ae bd 36 e1 6b 3e 7e 43 0a 3e 8c 91 5f be
       -0.08521462 0.2303513 0.13502309 -0.21832865
000080 62 46 e6 bd 81 ef 5a be 46 2b 88 bc 1a bf 65 be
       -0.11243893 -0.21380426 -0.016622197 -0.2243618
000090 47 e7 3d 3e c3 d9 d7 bd 03 e7 87 bd 94 63 d5 bd
       0.18545257 -0.105395816 -0.06635859 -0.10419384
0000a0 9b e7 9a bd 22 b8 3b 3e 3f 30 8d 3e 87 3a 5e be
       -0.075637065 0.1833196 0.2757587 -0.21702014
0000b0 c2 12 1e 3e a3 b2 28 bd 05 e7 cc 3d cc 16 0c be
       0.15436843 -0.041185986 0.10005001 -0.13680571
0000c0 36 08 a1 bc ca 28 6b bc 32 9a 4b 3d 2b 74 fe 3d
       -0.019657236 -0.014352987 0.0497076 0.12424501
0000d0 5a c2 91 3d f0 a2 a8 3c 32 2e 86 be 54 3f bc bd
       0.07117148 0.020585507 -0.2620712 -0.091917664
0000e0 cf 25 61 be 7f 46 8a be 29 b5 68 3e 9a f6 d1 bd
       -0.21987079 -0.2700691 0.22725357 -0.10252114
0000f0 14 1b 2e be a8 ec f2 bd f2 80 65 3e b3 04 4a be
       -0.17002517 -0.11861545 0.2241247 -0.19728355
000100 ef 00 33 be 11 0c 3b be d7 74 37 3b 50 45 c2 bd
       -0.17480825 -0.18266322 0.0027993226 -0.094858766
000110 6b 1c 53 be f0 17 86 be a7 af 86 be fc 58 be 3d
       -0.2061631 -0.26190138 -0.26305887 0.09294316
000120 5d 1c ec 3d 6b 03 d9 3c c2 d6 f0 bd e4 c8 02 be
       0.11528847 0.026490888 -0.11759712 -0.12771946
000130 ce 27 ce 3d 99 12 04 be 01 f1 c7 bd 0c 52 b7 bd
       0.10066186 -0.1289772 -0.09762765 -0.08951196
000140 be 3f 30 3d fc e8 6f 3d ca 9a 56 3e b4 ab 9d 3e
       0.04302954 0.0585718 0.20957485 0.30795062
000150 1d bb 05 bd 6b 94 05 3d 34 5e d2 bd 6f 5e 64 be
       -0.03264915 0.032612246 -0.10271874 -0.22301649
000160 08 97 6d 3e 4b 6f 36 bb 18 7f fa bd 22 c6 49 3e
       0.23202145 -0.0027837332 -0.122312725 0.19704488
000170 9b d4 09 3e 71 10 0d 3d 94 c9 03 3e 44 ca 13 3d
       0.13460009 0.034439508 0.12869865 0.036081567
000180 cb 05 4c be 37 a8 8a be 6a 8d fa 3d f9 5c 88 3e
       -0.19924085 -0.27081463 0.12234004 0.26633433
000190 51 09 6d be fe 19 15 3e 43 8e 5d be 40 83 39 3e
       -0.23148085 0.14560696 -0.216363 0.18116474
0001a0 6f 22 14 3e 66 1c 02 3e 9c 7e 58 3e 5f 7c c6 bd
       0.1446626 0.12706146 0.21142048 -0.09691691
0001b0 98 ad 62 bd f3 b1 bf bc 78 08 2f 3e eb e5 8b 3e
       -0.055341333 -0.023400282 0.17093074 0.2732385
0001c0 56 7b 4e 3d ed 5a f7 3c 09 93 89 be 61 ce 26 bd
       0.05041059 0.030194724 -0.2686999 -0.040724162
0001d0 6e c9 c3 3d d9 0d b5 3c ab 2b 7c 3e 47 c8 f1 bd
       0.09559904 0.02210133 0.24626033 -0.11805778
0001e0 95 32 5a be 9e f9 4b bd 72 65 40 3d b9 59 83 be
       -0.21308358 -0.0497986 0.046971746 -0.2565439
0001f0 ad cf 63 3e 90 c3 93 3d cb b3 8e 3d d0 25 a8 3d
       0.22247191 0.07215035 0.069678865 0.08210337
000200 89 32 79 be 65 10 43 be 5f 29 2b be 46 c8 36 3e
       -0.24335684 -0.19049223 -0.16715 0.17849836
000210 bb 38 1c be 82 b2 71 3e ef 3f 53 bd cf 86 92 3d
       -0.15256016 0.23603252 -0.051574644 0.07154619
000220 62 50 7a 3e 18 85 56 be 68 f4 99 be 99 c1 43 3d
       0.24444726 -0.20949209 -0.3006928 0.04779205
000230 b0 20 1f be 28 19 b6 3d fe 80 09 3e d5 73 13 3e
       -0.15539813 0.08891517 0.13428113 0.14399655
000240 1e dc ab 3d 06 39 39 be c8 bd 67 be d7 8d 2f be
       0.083915934 -0.18088159 -0.2263099 -0.17143951
000250 78 65 7e 3e e7 ab 0a be 5f 26 9c bb c0 ee 54 bd
       0.24843395 -0.13542138 -0.0047653164 -0.051985502
000260 1b 1f 00 be 65 92 d8 3d 62 cb e4 3b 61 a7 bb bd
       -0.12511866 0.105747975 0.006982253 -0.09162784
000270 72 d6 94 3e 74 41 62 3e 61 b1 20 3e 12 e3 2b 3e
       0.2906986 0.22095281 0.15692665 0.16785839
000280 6d 9e 0e be cd 2b 15 3e 0d f9 c0 bd 8f 0d e2 3c
       -0.13927622 0.1456749 -0.09422503 0.027594356
000290 7b f2 2c 3e cc 6a 61 bd 4e 8f 34 3e 15 01 e2 bc
       0.16889374 -0.05503349 0.17632791 -0.027588407
0002a0 f6 b9 e5 3d 92 34 5d 3d d8 44 86 be 4b 18 49 be
       0.1121711 0.054005213 -0.262244 -0.19638173
0002b0 3e 37 69 be c3 48 24 ba 2c 00 4d be ae da 7f be
       -0.2277498 -0.0006266946 -0.20019597 -0.24985763
0002c0 f7 12 9d 3d 6a 96 5f be 45 e3 03 be c2 ac 63 be
       0.07669633 -0.21834722 -0.12879665 -0.2223387
0002d0 1f 3f 54 3e a7 ed 57 3e d9 be 17 3e 24 30 66 be
       0.20727204 0.21086751 0.14818896 -0.22479302
0002e0 a7 ae 34 3e 7f 4f 60 3e 5a c8 a7 3b f6 28 4d 3e
       0.1764475 0.21905325 0.0051203193 0.20035157
0002f0 bd fa 08 3e bf e4 c8 bd 1f 6b 0d bc 98 f8 21 be
       0.13376899 -0.09809255 -0.008631497 -0.15817487
000300 62 ba c2 3d bd 2b e5 3d 46 da 81 be 57 48 ac bd
       0.09508206 0.11189983 -0.25361842 -0.08412235
000310 d7 a2 a2 bc 4c 87 91 3e 82 37 de bd 4b a1 4a 3d
       -0.019853039 0.28423536 -0.10850431 0.049470227
000320 d4 5d 71 ba 16 2c d5 bd 8b a4 84 be 35 21 a7 bd
       -0.0009207402 -0.10408799 -0.25906786 -0.081606306
000330 d0 26 af bd 19 88 a2 bd 37 4d a3 3d 88 10 29 bd
       -0.08552325 -0.07936115 0.07973712 -0.04127553
000340 a9 b1 54 be 01 c3 4c 3e 44 0a 0c 3e 32 e2 65 bc
       -0.20770897 0.19996263 0.13675791 -0.01403098
000350 8d e8 9c bc ba 93 8a be 72 5d cb bd 54 d4 36 bd
       -0.019153858 -0.2706583 -0.09929933 -0.044636086
000360 a3 b8 87 bb 4c ea 88 3d 9c 9b 1e be d5 2d 09 3a
       -0.0041418835 0.066853136 -0.15489048 0.0005232965
000370 c2 60 e9 3d 64 61 74 3e a5 65 93 3e 0b 5e 5b be
       0.11395408 0.23865277 0.28788486 -0.21422593
000380 49 5d a1 3a 26 0e 1e bd 68 a7 d1 3c 07 c1 21 3e
       0.0012311126 -0.03858771 0.02559252 0.1579629
000390 85 63 9c bd 79 1b 18 bc 90 bc 92 be 1d 87 39 39
       -0.07636169 -0.009283894 -0.28659487 0.00017693308
0003a0 05 38 b4 be be 31 38 3e 96 d7 41 be 77 8c 63 bd
       -0.3519899 0.17987725 -0.18929896 -0.05555388
0003b0 64 4c 07 be cc 2d f5 3d 3b 41 83 bd d5 60 7d 3e
       -0.13212734 0.11971626 -0.06408926 0.2474397
0003c0 fd 82 02 be 15 be 06 3e 2c aa 8e bd d9 54 77 be
       -0.1274528 0.13158448 -0.069660515 -0.2415346
0003d0 ca 7d a0 3e 31 43 c4 bd 7e 94 3c be 80 d1 32 3e
       0.3134597 -0.09583128 -0.1841602 0.1746273
0003e0 75 52 44 bd 59 61 16 bd 15 a5 98 3e 9b 27 55 be
       -0.0479302 -0.03671393 0.29813448 -0.2081589
0003f0 85 5a d3 bd 6b e6 4f 3c b2 e7 8f 3c 2a ce 8a bc
       -0.103199996 0.012689213 0.017566536 -0.01694401

features.0.bn.weight f4 [32]
000000 b2 04 81 3f 03 cf 82 3f 0f 32 80 3f 35 70 85 3f
       1.0079558 1.0219425 1.0015277 1.0424868
000010 ab d7 80 3f 83 76 7f 3f dd ce 84 3f 83 26 82 3f
       1.0065817 0.9979021 1.037563 1.0168003
000020 ad e5 7e 3f ed a2 6d 3f b6 d4 7b 3f 64 45 83 3f
       0.9956921 0.9282673 0.98371446 1.0255551
000030 84 be 83 3f de c8 82 3f 6f 4f 76 3f 76 df 82 3f
       1.0292516 1.021755 0.96214956 1.0224445
000040 aa c7 7e 3f fb 82 79 3f 96 b2 79 3f 72 82 7f 3f
       0.99523413 0.97465485 0.97538126 0.9980842
000050 f1 fa 80 3f 17 0c 73 3f 97 cb 6f 3f 90 9c 87 3f
       1.0076581 0.9494032 0.9367003 1.0594654
000060 97 77 7d 3f 04 b7 85 3f 82 32 7d 3f 27 69 80 3f
       0.99010605 1.0446477 0.98905194 1.003209
000070 95 95 81 3f a6 9a 81 3f 65 7b 81 3f c3 d3 80 3f
       1.0123774 1.012532 1.0115782 1.0064625

features.0.bn.bias f4 [32]
000000 56 87 04 be 0b 8a ba bc 47 53 c1 3d 94 f3 c6 3d
       -0.12942252 -0.022770902 0.09439712 0.097144276
000010 73 56 a1 bb 3a 5d 81 3d 0c aa a2 bc 3c a4 83 bd
       -0.0049236356 0.0631661 -0.019856475 -0.064278096
000020 7c f6 a1 bb 5f c3 a3 bd 5f a1 f1 bc 15 af 9d 3d
       -0.0049427133 -0.079962485 -0.029495893 0.0769941
000030 08 c9 4e bd dd 44 ab 3d de 36 99 3d 94 8a 13 3d
       -0.050484687 0.08362744 0.07481168 0.03602083
000040 f6 fb b1 bd 5f 40 07 3c 5a a6 fd 3d 8e b0 8e 39
       -0.08690636 0.008255093 0.12385245 0.00027215894
000050 b6 74 7a 3d 01 5e 61 3c 70 ad db bc 73 b6 03 3e
       0.06114646 0.013755322 -0.0268161 0.12862568
000060 46 ce e2 bc fc 95 0b bd 1e b4 72 3d 9e f8 82 bd
       -0.02768625 -0.034078583 0.059253804 -0.06395076
000070 47 72 0d be eb 38 97 bd a4 cc 76 bc b7 07 5c 3c
       -0.13813125 -0.07383903 -0.015063439 0.013429574

features.0.bn.running_mean f4 [32]
000000 b4 fb 82 be 6e d5 60 bd bf 21 15 3e d3 94 de bb
       -0.2558266 -0.054891042 0.14563654 -0.0067926436
000010 43 15 ad bd ec ce 8a be cc bd 67 bc 54 29 a4 3d
       -0.08451321 -0.27110994 -0.014144372 0.08015695
000020 29 bb 3f be e7 ed 61 3e 29 aa 05 be 5a 67 75 bd
       -0.1872374 0.22063409 -0.13053192 -0.059913017
000030 ba 76 7b 3c fb 72 0a be f7 f8 7f 3e 08 4f 7d 3e
       0.015348131 -0.13520424 0.24997316 0.2473718
000040 8d ab 71 3e d5 1e 73 bd cf 71 94 3d ce d4 fd bc
       0.23600598 -0.059355576 0.0724827 -0.030985262
000050 3b a4 8a be e2 18 96 bd 7d 5e df bd 64 f5 57 be
       -0.27078423 -0.07328965 -0.10906694 -0.21089703
000060 24 7a 91 be 35 01 58 3e 06 7d c7 bd 7c 9b 91 be
       -0.28413498 0.2109421 -0.09740643 -0.28438938
000070 64 11 9b 3e 4f 85 3c be 74 51 bc bd 4f 19 6d bd
       0.30286705 -0.18410228 -0.091952235 -0.057885464

features.0.bn.running_var f4 [32]
000000 25 8e 9e 3d b4 1a 0d 3d 3c 7b 9a 3d 7b ad 31 3d
       0.07741956 0.034449294 0.07543036 0.043378334
000010 e9 fd 0b 3d 9e 4b 72 3d 98 fc d2 3d 1a ce 42 3d
       0.034177694 0.059154145 0.10302085 0.047559835
000020 60 99 75 3d 93 bf 8c 3d 97 16 56 3d 26 b4 99 3d
       0.059960723 0.068724774 0.052267637 0.07505064
000030 94 0a 34 3d de bf 8c 3d d2 03 8c 3d 78 59 94 3d
       0.0439554 0.06872533 0.06836666 0.07243627
000040 da fd 11 3d b2 6f 38 3d f4 c7 52 3d 4e 24 bc 3d
       0.035642482 0.045028396 0.05146022 0.09186612
000050 c4 87 b2 3d d4 23 8d 3d bb c1 a1 3d b1 27 99 3d
       0.087173015 0.06891599 0.07898279 0.07478274
000060 d1 a7 29 3d 4f aa 22 3d 32 a2 ce 3d ca df 12 3d
       0.041419808 0.0397132 0.1008953 0.035857953
000070 72 63 59 3d c5 8a 6b 3d 15 dd 57 3d da ca c5 3c
       0.053073354 0.057505388 0.052701075 0.024144579

features.1.depthwise.weight f4 [32, 1, 3, 3]
000000 10 ec 53 bc 43 8e 1f 3e 30 eb 1b 3e 5e 2d 2f be
       -0.0129347 0.15581612 0.15226436 -0.1710715
000010 cb 3d 93 3e bd 39 87 bc 49 ec 44 3e ca 33 99 be
       0.28758082 -0.016507024 0.1923076 -0.29922324
000020 bc ba 80 3e e8 4a ee 3d a0 24 9e 3d ff 3c 93 be
       0.25142467 0.11635381 0.077218294 -0.28757474
000030 da fd 39 bd b8 69 10 be 50 77 bb 3e 5b 29 a0 be
       -0.045408107 -0.14102829 0.36614466 -0.31281552
000040 55 04 bb bd b3 26 2f be 4e 9b 84 be 98 0e 05 3e
       -0.09131686 -0.17104606 -0.25899738 0.12993848
000050 6b 4a 26 be ca a8 69 3e c6 80 10 3e f7 a2 77 be
       -0.16239326 0.22818294 0.14111623 -0.2418326
000060 0f 6b 8c bd b2 f9 2f bd 5d 03 34 bd 86 3e 57 be
       -0.06856357 -0.042962737 -0.04394852 -0.21019945
000070 02 a2 8f be 35 43 c1 3d cb 3b 72 be 02 97 4f 3e
       -0.2805329 0.09436647 -0.23655622 0.20272449
000080 33 87 4e 3e b5 3a e1 3e ab 2c 8b 3e d8 c7 54 be
       0.20168762 0.43990102 0.27182516 -0.2077936
000090 3f d1 96 bd c2 d7 8a 3e a0 e3 90 bd eb 1b 50 be
       -0.07364129 0.27117735 -0.07074666 -0.2032315
0000a0 58 79 0e be 19 7b a5 3e 1b 8d 80 be 56 35 1f 3e
       -0.13913476 0.3232048 -0.25107655 0.1554769
0000b0 16 55 6f be fd e1 2d 3e e7 e2 ff 3d bb d7 4c 3e
       -0.23372301 0.16980739 0.1249445 0.2000417
0000c0 f3 6e 96 bc 4c cb 35 3e ee 01 ae 3e 60 21 8a 3c
       -0.018363452 0.17753333 0.33985847 0.016861618
0000d0 4f fb 76 be bd b5 94 be 95 f8 71 3e 53 fb 7e be
       -0.24119304 -0.29044905 0.23629983 -0.2490056
0000e0 3b 3b 96 be 85 c7 9e be 61 c4 8f bd 33 9e 30 3e
       -0.29342064 -0.31011596 -0.07019878 0.17247848
0000f0 4f 84 95 be b8 61 f3 bd a9 59 ce 3e 63 d4 a3 bd
       -0.29202506 -0.11883873 0.4030278 -0.07999494
000100 84 56 f6 bd 6b f7 b6 3d be 4c 6a be 24 81 4a be
       -0.1202822 0.0893391 -0.22880837 -0.19775826
000110 ba 08 a2 3d 24 7d 57 3e ae 66 a7 be 21 4b c9 3e
       0.07911821 0.21043831 -0.32695526 0.3931513
000120 74 e1 06 be dc d6 23 bd 53 f0 71 3e 68 61 d0 3d
       -0.13171941 -0.039999828 0.23626833 0.10174829
000130 ef 17 a4 3d ca 03 ab be e0 e0 a3 be d9 9d 25 3e
       0.080123775 -0.33401328 -0.32007504 0.16173495
000140 fa e5 7b 3c a4 91 0b 3e de 72 60 3e 24 ba 87 be
       0.015374655 0.13629776 0.21918818 -0.26509202
000150 09 28 ba 3d 57 dd 87 be ff d4 11 be ce c6 75 3d
       0.09089667 -0.26536056 -0.14241408 0.060004048
000160 ba aa 9b bd 76 56 fb bd a4 88 8a 3d 7c 59 5c 3e
       -0.07600923 -0.122723505 0.067643434 0.2151851
000170 b7 86 83 be 42 46 d0 3e ee 82 4d 3e 2d cd 6b bd
       -0.25688717 0.40678602 0.20069477 -0.057568718
000180 2f fe a3 be 0b f4 b4 bd de b9 c7 3d 33 b8 f2 bd
       -0.32029864 -0.0883561 0.09752248 -0.118515395
000190 12 37 d5 bd 28 e5 09 be c2 1a 8a 3e 27 ed 9a 3e
       -0.104108945 -0.13466322 0.2697354 0.30259058
0001a0 81 32 9f be 38 69 09 be 22 dd b1 3e 01 7d 0e 3d
       -0.3109322 -0.13419044 0.34739023 0.03478718
0001b0 69 d3 9a be 5f 48 1d 3d f3 32 85 3e a7 49 74 bd
       -0.30239418 0.038399097 0.26015434 -0.059640553
0001c0 6d 8a c2 be e2 5e b7 bd 1c a6 c8 3d 26 06 7c 3c
       -0.37996235 -0.08953644 0.09797308 0.015382325
0001d0 6f b0 5d 3e 3f 83 0c 3e d9 6a 51 3d c9 33 44 3e
       0.21649335 0.13721941 0.05112729 0.1916038
0001e0 21 de c0 bc 26 c7 a3 be e2 42 6f be b3 11 be be
       -0.02354342 -0.31987876 -0.23365358 -0.37122878
0001f0 1a 11 5b bd be b5 46 be 42 1d 5e 3d 7e bd e4 3c
       -0.053483106 -0.19405267 0.05422712 0.027922388
000200 99 e8 92 3e d9 4c fc bc 27 20 05 3e b1 6b 2b 3e
       0.28693083 -0.030798363 0.13000546 0.167403
000210 79 75 3b bd a1 eb 16 be 4d be 8c be ae 24 c8 be
       -0.045766328 -0.14738323 -0.27488938 -0.39090484
000220 9b 20 04 bd d7 d5 31 be bb b9 48 3d ea c4 83 3d
       -0.032257657 -0.1736673 0.04900525 0.06434043
000230 3a a7 81 3e fe 0c c7 bd e1 af 12 3c 1e 98 80 3e
       0.25322896 -0.09719275 0.008953066 0.25116056
000240 10 31 ff 3c 23 41 f1 3d 5f 6f 4e be 0b e4 66 be
       0.031151325 0.11780002 -0.20159672 -0.22547929
000250 75 3d 8e 3e 9c 9b 9d 3e 1c e3 cf bd 4d 6d 44 3d
       0.27781263 0.30782783 -0.101507396 0.0479558
000260 74 d4 8f be ba ce 34 3d d9 25 9e be 49 f5 a8 3d
       -0.28091776 0.044142462 -0.3088825 0.082499094
000270 85 55 af be f3 33 d4 bd 69 ec 9b 3e cc 12 de bd
       -0.34244934 -0.10361471 0.30453804 -0.10843429
000280 8d 65 3c be aa 07 9e 3e 63 c4 81 be 90 90 0a 3d
       -0.18398114 0.30865222 -0.25345144 0.03382927
000290 0b 1f 90 3e 90 35 18 3e 1f 48 57 be 03 d2 4f 3e
       0.28148684 0.14864182 -0.21023606 0.20294957
0002a0 56 83 59 3e b1 9b 34 be 85 12 34 be e6 42 bf bd
       0.21241507 -0.17637517 -0.1758519 -0.09338932
0002b0 08 88 17 3d bc aa 0e 3e c3 7f d7 b9 50 30 3f 3e
       0.036994964 0.13932317 -0.00041103186 0.18670774
0002c0 11 29 bf 3e eb b9 e7 3d 3e a8 9d 3d c4 d0 58 3e
       0.3733602 0.11314758 0.07698105 0.21173388
0002d0 02 e6 67 3d 77 2b 76 3d 93 b6 b3 3e 4b ce e1 3d
       0.056615837 0.060100045 0.3510023 0.110256754
0002e0 90 2d 44 3e 9a 89 2e be 08 9b 29 be 03 36 82 be
       0.19158006 -0.17044678 -0.16563046 -0.25431833
0002f0 28 9a 9a be 61 37 2c bc e2 b1 0a 3e 1a 45 71 3c
       -0.30195737 -0.01051125 0.1354442 0.014725948
000300 fd 42 3f bd 6b 3c 45 bc c7 27 5b be bf 94 69 be
       -0.046694744 -0.012038331 -0.21401893 -0.22810648
000310 3f 29 d1 3c 67 07 69 be 0a cb b2 bb ee f8 68 3e
       0.025532363 -0.2275673 -0.005456333 0.22751209
000320 11 25 8c 3d 92 9d 88 3e 27 50 57 be da 35 f0 3b
       0.06843007 0.26682717 -0.2102667 0.0073306384
000330 fb 96 a7 be 65 55 3f bc 8a 7a 72 be f8 62 b6 3e
       -0.32732376 -0.0116780745 -0.23679557 0.35622382
000340 98 03 9e be 5b 7c f2 3d a2 8b 3c be 2a 26 03 3e
       -0.30862117 0.11840125 -0.1841264 0.12807527
000350 98 fa 17 3d f9 36 c1 bd 30 9c 38 be aa ba 72 3e
       0.03710422 -0.09434313 -0.18028331 0.23704019
000360 0e 69 bb 3c 5c 85 3c bc 2e 81 0f be e2 4e 6f be
       0.022877242 -0.011506405 -0.14014122 -0.23369935
000370 2c a1 1e be 79 ea ab 3e ce 30 a3 3e 31 b3 3b be
       -0.1549117 0.33577326 0.31873173 -0.18330075
000380 70 c0 be 3b 05 1f af 3d e1 14 a7 3e c6 ed 5c 3c
       0.00582128 0.085508384 0.32633117 0.013484424
000390 b0 2a 85 3d cf c9 b3 bd e5 dd fa 3d 1c 49 ca be
       0.065022826 -0.08778726 0.12249354 -0.39508903
0003a0 b3 ca a9 be 30 3a b5 bd ca 03 a8 be 70 cc 5f be
       -0.3316246 -0.08848989 -0.3281539 -0.2185533
0003b0 57 a7 f9 bd c4 4a 48 3e 81 99 47 3e 07 db bb bd
       -0.12190121 0.19559771 0.19492151 -0.091726355
0003c0 7c 8b 8c 3b 5c 8f 5a 3e e8 08 16 3e d5 56 9b 3e
       0.004289089 0.2134375 0.14651835 0.30339685
0003d0 3e 91 80 bd 74 a4 ba be 01 bb 80 bd d8 7f 3a 3d
       -0.06277703 -0.36453593 -0.06285668 0.045532078
0003e0 59 42 88 bd 8a 0d 52 be 5a f8 8a 3e 04 7c ab be
       -0.0665328 -0.20512977 0.27142602 -0.33493054
0003f0 84 53 62 bd c1 e7 21 3e 40 62 bd bd 2d 72 30 3e
       -0.055255428 0.15811063 -0.09247255 0.17231055

features.1.pointwise.weight f4 [64, 32, 1, 1]
000000 1c d0 2b 3d d6 33 52 be 24 98 8e be 03 0e eb 3c
       0.041946515 -0.20527586 -0.2785045 0.028693205
000010 22 2f 0b bd e8 48 e1 bd 9e 8b 9e bd 5c 2c 58 be
       -0.033980496 -0.11000234 -0.077414736 -0.21110672
000020 c3 dc 80 3d 38 d3 19 bd 60 d0 1a 3e b0 45 eb bc
       0.06292107 -0.03755495 0.15118551 -0.028719753
000030 16 6c 87 3c a8 5a a3 bc 01 27 db bd 0d 69 4f 3e
       0.016531032 -0.01994069 -0.10700799 0.20254917
000040 3a ce 75 3d e9 56 d7 3d 9b 2a a8 bd d3 fc a1 3d
       0.060011126 0.10514624 -0.08211251 0.079095505
000050 29 a3 45 bc 2e 40 87 3d b7 61 67 3e fe 9a 30 be
       -0.012062826 0.06604038 0.22595869 -0.17246625
000060 59 7e 00 be a8 b1 b1 bd 39 52 39 3e dd 35 81 3d
       -0.12548198 -0.08676463 0.18097772 0.06309102
000070 9c f4 1a 3d ec 3f 44 bc b9 16 90 3c b1 17 98 bd
       0.037830934 -0.011978131 0.01758896 -0.07426394
000080 47 13 c1 bd ee c5 66 3d 50 bd 31 3e b7 78 fc 3d
       -0.09427505 0.056341104 0.17357373 0.12327712
000090 d2 30 0a be 2a f9 b1 3d 60 25 34 bd 9e 53 57 3e
       -0.13495186 0.086901024 -0.043980956 0.21027991
0000a0 b2 65 02 3e 7b 56 9a 3d 97 e3 f8 3d f1 b1 b8 bc
       0.12734106 0.07536026 0.12152784 -0.022545787
0000b0 93 4a 0c be 8d 8f 05 3c ac 32 50 3d a3 b2 e2 bc
       -0.13700323 0.008151901 0.050829574 -0.027673071
0000c0 16 13 75 3e 7d bf d8 bd b7 38 0c 3e 6f 5a 19 bc
       0.23933062 -0.105833985 0.1369351 -0.00935994
0000d0 c7 95 08 3e ed 78 11 3e 8a 2f bc 3d 05 36 97 bc
       0.13338386 0.14206286 0.09188755 -0.018458376
0000e0 1e 4d bc bd 97 0a 6c bd 64 19 80 be 2c b4 0e be
       -0.091943964 -0.057627287 -0.25019372 -0.13935918
0000f0 66 f7 e0 3d 0a 87 11 3e 31 bf fc bd 95 ec 72 bd
       0.109846875 0.1421167 -0.12341154 -0.059307653
000100 18 a5 6e 39 01 68 8c 3d 6c cc 45 be 43 c2 5d 3d
       0.00022758951 0.06855775 -0.19316262 0.05414034
000110 31 b1 cf bd 1e 6b 55 bd e6 cd cc bc f3 08 20 be
       -0.101412185 -0.052104108 -0.025000524 -0.15628414
000120 c8 e5 8e bc 70 00 8a 3d ff 93 36 3d e3 24 7b 3e
       -0.017443553 0.06738365 0.044574734 0.2452579
000130 b1 67 f1 3d ec f4 92 be 0f e3 91 bd 55 35 9f 3d
       0.11787356 -0.28702486 -0.07123386 0.07773844
000140 9e f0 b8 bd ff 98 8a 3d 3d e7 a3 3d 2f 30 4b be
       -0.09030269 0.06767463 0.080030896 -0.198426
000150 3a 77 4b 3e f4 40 db bd b7 ae a2 bd 88 95 3d be
       0.198697 -0.10705748 -0.079434805 -0.18514073
000160 8a 1a 9a 3a 53 59 41 3c 72 08 11 3d fa ac f5 bd
       0.0011757177 0.011801082 0.035408445 -0.11995883
000170 38 6a 22 3e 70 47 d3 bd 6d d0 7e 3e b4 74 30 3d
       0.15860832 -0.1031636 0.24884196 0.043080047
000180 2e 83 1f be bf 8c 25 3e 50 0a 00 3d 26 1e 6d be
       -0.15577385 0.16166972 0.031259835 -0.23156032
000190 5a b2 8d 3d 91 01 35 3e 9f b2 f7 bd a9 ac 5e bd
       0.069187835 0.17676379 -0.12094616 -0.05436388
0001a0 71 c1 67 be d9 53 82 3d 6a e0 b6 3d 2e 27 d6 3d
       -0.22632386 0.06363649 0.08929522 0.10456692
0001b0 6a 57 8c 3d 2c 30 6d 3c 16 78 28 3d 33 f4 0d be
       0.068526104 0.014476817 0.041130148 -0.13862686
0001c0 53 c8 63 3e 3b c7 70 3c de 52 28 3c f7 c8 2e 3d
       0.22244386 0.014695938 0.010273663 0.042672124
0001d0 03 e6 1d 3d 41 7c 62 be 0a 0f 18 bd 6a 32 78 3c
       0.038549434 -0.22117712 -0.037123717 0.015148738
0001e0 3d f9 13 be a3 66 1c be 6d ed df 3c 74 71 1d be
       -0.14450546 -0.15273528 0.027334893 -0.1537531
0001f0 5e f0 8f 3e f4 2b 85 3d 54 00 e0 3d 44 09 8e bd
       0.28113073 0.06502524 0.109375626 -0.06935361
000200 1d a2 bb 3c c3 40 03 bd 16 d8 22 bd a1 8e c5 3d
       0.02290445 -0.032044183 -0.039756857 0.09646345
000210 c6 ae 54 be b2 27 9e bd ea 41 58 bd 19 79 f7 3d
       -0.20769796 -0.07722415 -0.052797236 0.120836444
000220 33 6d fa 3d 3b c8 6f bd f1 33 5e be 7d 4c 65 bd
       0.12227859 -0.058540564 -0.21699502 -0.055981148
000230 3a 50 b5 3d 47 69 90 bd 0d 2b d5 3d 42 bf 48 3e
       0.088531926 -0.0705133 0.10408602 0.19604209
000240 d5 80 5e be fe e2 12 3d d6 8d 7e 3d 94 fb 6f bd
       -0.21728833 0.035861008 0.062146984 -0.058589533
000250 1f 41 fa 3d 3f 88 8c bd 0d d5 10 3e 98 6d b1 bd
       0.12219452 -0.068619244 0.14143772 -0.086634815
000260 58 9d 35 3e 93 bd 65 3c 8a e3 1a be 32 cf 07 3e
       0.17735803 0.014022249 -0.15125862 0.13262632
000270 cb 8e 12 be 17 38 59 bd 2c 7f 16 3e 19 65 9e 3c
       -0.14312284 -0.053032007 0.1469695 0.019335316
000280 01 b5 d7 3d ca 7e ac bd a9 eb 8f bd cf e6 37 be
       0.10532571 -0.084226206 -0.070273705 -0.1795914
000290 e9 cc e1 bd 68 a8 48 be 8f f1 f3 3d 37 6e 07 bd
       -0.11025412 -0.19595492 0.11911308 -0.033064093
0002a0 02 04 1b be dc 9d c7 3d 3d 32 b7 bb 99 75 29 bd
       -0.15138248 0.09746906 -0.0055907057 -0.041371915
0002b0 5b 04 69 3d 80 ec 60 3d ba ae 2c 3e 52 77 fd 3c
       0.05688892 0.054913044 0.16863528 0.030940685
0002c0 d7 7d 2b 3e 37 3c eb bd cf 06 42 3e 1d ee 93 3d
       0.16747223 -0.114860944 0.1894791 0.07223151
0002d0 a2 bc 34 3c cb dd fa bc aa 46 48 be 72 35 4e 3d
       0.011031302 -0.030623337 -0.19558206 0.05034394
0002e0 81 ba f3 3d 99 2a f7 3d 22 62 2e 3e d7 86 3e be
       0.11900807 0.12068672 0.17029622 -0.18606125
0002f0 51 32 ab 3d ef 8c f2 3d d3 c7 21 be 84 18 0d 3e
       0.083592065 0.11843287 -0.15798883 0.13778883
000300 6f 08 31 3d 75 a5 5f bc 45 55 3e 3e 8c cb 08 3a
       0.043220934 -0.013650288 0.18587215 0.0005218319
000310 d9 f9 bd 3d be af 50 be f2 a0 2b be 21 de 28 3d
       0.0927617 -0.2037954 -0.16760615 0.041227464
000320 63 96 cb 3b d0 82 2b be f4 9d e4 bd 2b 77 2c 3e
       0.006212996 -0.1674912 -0.1116294 0.16842334
000330 37 82 29 3e a9 c7 58 be e3 47 2f be a1 86 bc bd
       0.1655358 -0.21169914 -0.17117266 -0.09205366
000340 28 fb f1 bb 45 69 ff bd b2 69 d5 3c 51 d9 68 be
       -0.0073846765 -0.124712504 0.026051376 -0.2273915
000350 aa b9 d5 3d 42 04 75 ba 48 5b 26 be 1c 31 9a 3d
       0.10435803 -0.0009346643 -0.16245759 0.07528898
000360 53 01 0e be 2c dc 18 3e 60 bd f2 bd 90 53 db 3b
       -0.13867693 0.14927739 -0.11852527 0.006693311
000370 7d 58 1d 3e 73 3d e3 bd dc 15 1d bd 70 ed 3d 3e
       0.15365787 -0.11095705 -0.038350925 0.18547606
000380 30 72 3f 3e 7f 16 65 bd 7d 1c 12 3e 72 5d 19 bd
       0.18695903 -0.055929657 0.1426868 -0.037442632
000390 04 53 27 3e fa cf 13 3d 2e ff 67 3e 51 b2 11 bd
       0.16340262 0.036087014 0.22655937 -0.035570446
0003a0 7c 0f 89 bd f5 dd f7 bd 0a 0c 42 bc a7 52 f5 3d
       -0.066924065 -0.12102882 -0.011843691 0.11978655
0003b0 84 b2 98 3d 0f 75 9a bd 0a de f0 3d e6 d3 5c 3e
       0.07455924 -0.075418584 0.117611006 0.21565208
0003c0 ea ff a6 3c 0c ad 1e bd d8 30 cb 3d 2f 4d 0f 3e
       0.020385701 -0.03873925 0.099214256 0.13994287
0003d0 5d da 50 3e 5d 85 ab 3d c8 b9 b1 3c 58 9f f0 bd
       0.20395799 0.083750464 0.021695033 -0.117491424
0003e0 3a ef 5a 3d 91 60 33 be 1b f9 6d 3c 8a 24 4a bc
       0.0534508 -0.17517306 0.014524723 -0.012337813
0003f0 d3 37 4b bd 1c 7a 20 3e d6 94 bd 3d 61 fb 31 3e
       -0.049613785 0.15671581 0.09256904 0.1738105

features.1.bn.weight f4 [64]
000000 f7 75 82 3f f6 cc 7f 3f e1 ff 70 3f 96 a8 7b 3f
       1.019225 0.9992212 0.9414044 0.98304117
000010 87 d8 7d 3f 90 f4 78 3f d6 37 7a 3f a4 b3 7e 3f
       0.9915852 0.9724817 0.9774145 0.9949286
000020 53 3e 68 3f d2 5f 74 3f 62 0c 83 3f 10 b0 78 3f
       0.907201 0.9545871 1.0238154 0.9714365
000030 82 7c 76 3f b9 6b 80 3f 89 89 7a 3f b0 27 89 3f
       0.96283734 1.0032874 0.9786611 1.0715237
000040 19 ef 83 3f 53 2c 82 3f b6 be 80 3f 11 b6 88 3f
       1.0307342 1.0169777 1.00582 1.0680562
000050 d1 b0 80 3f f5 7f 85 3f 92 7a 88 3f 4b cc 88 3f
       1.005396 1.0429674 1.0662405 1.0687345
000060 1c b9 79 3f 35 d7 78 3f db 73 87 3f 8a 33 79 3f
       0.9754808 0.9720338 1.0582231 0.9734427
000070 74 7e 82 3f 75 71 87 3f 32 0b 80 3f bd 2d 7d 3f
       1.019484 1.0581499 1.0003417 0.98897916
000080 cb 6b 7a 3f 0f 2c 86 3f f1 2d 73 3f d9 0a 77 3f
       0.9782073 1.0482196 0.94991976 0.9650093
000090 47 99 83 3f 16 54 6f 3f ad a8 85 3f bd 37 7c 3f
       1.0281152 0.9348768 1.0442101 0.9852255
0000a0 ae 57 80 3f 44 e9 77 3f 87 f2 7f 3f 88 5a 7a 3f
       1.0026758 0.9684031 0.9997944 0.9779439
0000b0 61 32 87 3f 66 0d 84 3f 49 d7 7f 3f 42 ea 80 3f
       1.056225 1.0316589 0.99937874 1.007149
0000c0 36 d0 89 3f 3b f8 81 3f 6a 7b 7f 3f fc c2 80 3f
       1.0766666 1.0153879 0.9979769 1.0059505
0000d0 55 c7 84 3f fc 94 87 3f 71 9c 7f 3f f0 5d 85 3f
       1.0373331 1.0592341 0.99848086 1.0419292
0000e0 a0 44 7d 3f 2d 85 80 3f 86 b5 81 3f 17 8b 7c 3f
       0.9893284 1.0040642 1.0133522 0.98649734
0000f0 c6 f1 6e 3f c3 59 8a 3f 4f ca 81 3f b2 d3 82 3f
       0.93337667 1.0808643 1.0139865 1.0220854

features.1.bn.bias f4 [64]
000000 b5 41 fb bd 21 90 9d bd c3 35 26 be fb 15 99 3c
       -0.12268392 -0.07693506 -0.16231446 0.018687239
000010 8b 68 e3 3c 5d 6e 78 bd b9 96 10 bd 3e fb 30 be
       0.02775981 -0.060652126 -0.03529999 -0.17283341
000020 0c 8b 30 3d db 07 0a be 00 6d 94 bd b7 53 8e bc
       0.043101355 -0.13479559 -0.072473526 -0.017373903
000030 4f c9 c5 3b cb 50 c9 bc 9a 21 55 bc a1 98 0a bd
       0.0060359607 -0.024574658 -0.0130084995 -0.033836965
000040 59 a8 fb bd df 2a 14 bd 5a 83 9b bd 62 71 f2 bc
       -0.12287969 -0.036173698 -0.07593413 -0.02959508
000050 bc 30 19 bc de 25 0c be 9b 5a ca bd 01 ba 3e bd
       -0.009349998 -0.1368632 -0.09880563 -0.046564106
000060 68 5b b6 bc 59 24 b8 bd f5 b3 7c bd d6 e5 71 be
       -0.022260383 -0.08991308 -0.061695058 -0.23622832
000070 7e 55 6c 3d ee b0 cf bd 36 09 3e bd 1d 8c 05 3c
       0.05769872 -0.101411685 -0.046395503 0.008151081
000080 d7 ba 3c be 9a e5 1c 3c 9e fe db bd 23 d0 08 bd
       -0.18430649 0.009576226 -0.10741924 -0.03340162
000090 d3 16 c0 bd b6 5b 98 bc 11 99 54 bd 4b b0 0d bd
       -0.093793534 -0.018598419 -0.051903788 -0.034591954
0000a0 7b 1b 54 be 82 84 6f bc fc 5f 03 bd 49 67 32 bd
       -0.20713608 -0.014618995 -0.03207396 -0.04355553
0000b0 f8 0c 40 bd 9f 2d 83 bd e2 d2 fc bc c7 81 cd bd
       -0.046887368 -0.06405186 -0.030862276 -0.10034519
0000c0 32 4e f6 bd c4 b7 a1 bd de f6 18 bd e8 54 3b bd
       -0.12026633 -0.07896379 -0.037344806 -0.04573527
0000d0 60 5d f1 bd fb 80 b1 bd 54 81 15 be 67 b9 62 bd
       -0.11785388 -0.08667179 -0.14600116 -0.055352595
0000e0 cc 1a 99 bd c7 34 41 bc e6 10 f9 bd 5c fa 3e bd
       -0.07475814 -0.011792368 -0.12161426 -0.04662548
0000f0 55 c0 93 bd 17 a3 ce bc f7 2d 54 3c b6 81 5a 3c
       -0.07214419 -0.025224252 0.012950412 0.01333659

features.1.bn.running_mean f4 [64]
000000 93 65 c2 3d 1b 22 96 bd 30 65 11 3e 35 8d b3 3d
       0.0949203 -0.07330724 0.14198756 0.087671675
000010 a8 0c 70 3d 1f 78 ee bc 35 9c 87 bd fe f9 01 3e
       0.05860582 -0.029110013 -0.06621591 0.1269302
000020 97 21 4e bc 6b 63 df bc c3 c4 cd bd 10 08 13 be
       -0.012581251 -0.027269086 -0.10047295 -0.14358544
000030 9c d2 6d be 21 05 94 3e 59 ad 4e 3c 4e 10 01 3e
       -0.23224872 0.28910163 0.0126145715 0.12603876
000040 c0 86 23 be 96 14 d5 bc 1a 3d 4c bd d1 f3 56 be
       -0.15969372 -0.026010793 -0.04986296 -0.20991446
000050 04 fd 4e be b9 1c f9 bd 6e 2d 1e bc 6e e7 24 3e
       -0.20213705 -0.121636815 -0.009654386 0.16103908
000060 5b fa 8f bd 85 79 1c be aa 42 9e 3e fd a1 fe 3d
       -0.070301734 -0.15280731 0.30910236 0.124332406
000070 36 0a 48 be d9 28 15 be 6a 3b 3a 3e 47 72 17 be
       -0.19535145 -0.14566363 0.18186727 -0.14789687
000080 26 7a 9d bd 91 a9 25 3e b0 20 20 3e 1b 6c e2 3d
       -0.076893136 0.16177966 0.1563747 0.11055776
000090 44 3e 7b 3c 3c 73 76 bd 04 11 78 bd 25 b7 41 bc
       0.0153346695 -0.06016849 -0.060563102 -0.01182345
0000a0 7b 0e 02 3e 67 17 52 3e 9e 27 27 bd 03 f7 5d 3d
       0.12700836 0.2051674 -0.040809266 0.054190647
0000b0 3c 7e 86 be dd 9b 94 3d c9 81 84 be 2b 6f a0 bd
       -0.26268184 0.07256291 -0.25880268 -0.078337036
0000c0 9c 76 4d bd df cd 92 bd b2 54 08 be dd d9 03 3d
       -0.050161943 -0.07168173 -0.13313559 0.032190192
0000d0 b5 b2 34 be e8 3f d5 3c d6 1c 8f be a9 8e 43 bd
       -0.17646296 0.02603145 -0.27951688 -0.047743473
0000e0 84 d9 b0 3d 86 fb 90 bd 09 d3 2f 3d 66 57 55 bc
       0.08635238 -0.07079224 0.04292587 -0.013021326
0000f0 18 ff b2 bd cc 4d a0 bc 17 a8 a2 3e 9c 3a 08 be
       -0.087400615 -0.019568346 0.31768867 -0.13303608

features.1.bn.running_var f4 [64]
000000 67 3e 41 3d 77 e5 4e 3d ae f9 0d 3d bb e8 78 3d
       0.047178652 0.050511803 0.03466194 0.060768824
000010 42 5c 33 3d 1d af 45 3d a6 94 0d 3d 86 27 90 3d
       0.043789156 0.048262704 0.03456559 0.070387885
000020 c0 c2 58 3d ff 66 e9 3c ef 4e b4 3c ca 98 48 3d
       0.052920103 0.028491495 0.022010295 0.048973836
000030 04 37 2c 3d df 67 39 3d 71 94 da 3c ad ff 6b 3d
       0.042044654 0.045265075 0.02668211 0.05761688
000040 98 3f 14 3d 27 a9 44 3d cd b2 23 3d 01 d5 8d 3d
       0.03619346 0.04801288 0.03996544 0.06925393
000050 cd 92 47 3d 6e 06 69 3d fb d1 54 3d 96 f6 1b 3d
       0.048723985 0.056890897 0.051958065 0.03807696
000060 15 8d 29 3d 2e 03 58 3d 32 8e 6c 3d 86 a3 63 3d
       0.041394312 0.052737407 0.057752796 0.05557587
000070 44 b9 48 3d 8a aa 21 3d 40 87 78 3d b0 2b 1c 3d
       0.049004808 0.03946928 0.06067586 0.0381276
000080 41 6a 06 3d 32 57 4b 3d 4e c8 53 3d 5c 1f 5f 3d
       0.032816175 0.049643703 0.051704697 0.054473266
000090 84 cd d9 3c d1 2f 17 3d 5e e6 53 3d bf 61 41 3d
       0.026587255 0.036910836 0.051733367 0.04721236
0000a0 0e 39 4f 3d b6 b2 80 3d 11 74 3b 3d 64 b0 48 3d
       0.05059152 0.062840864 0.045764986 0.048996344
0000b0 7b af 6b 3d 03 33 4e 3d 22 37 56 3d 21 44 7d 3d
       0.057540398 0.050341617 0.052298672 0.06183255
0000c0 97 b7 75 3d 88 67 15 3d 91 73 5c 3d bc 60 5c 3d
       0.059989538 0.03647569 0.05382115 0.05380319
0000d0 75 f8 39 3d 53 8c 3b 3d c0 7e 56 3d bf f2 85 3d
       0.045402963 0.04578812 0.052366972 0.06540441
0000e0 eb 65 41 3d 3e 34 12 3d 24 5e 84 3d 78 97 07 3d
       0.047216337 0.035694353 0.064632684 0.033103436
0000f0 13 8e ff 3c 0d 7a 1d 3d f3 7c 62 3d 87 35 3c 3d
       0.031195676 0.038446475 0.055294942 0.045949485
