model.pth (torch, 114585 bytes, 33 tensors)

stem.0.weight f4 [16, 4, 3, 3]
00000000: d0c0 583e f108 eeba d607 42bb d9a7 cbbd
00000010: f9c5 db3c c41e a73d 0d85 2abe 245b 353d
00000020: cc97 833d 59d6 2a3e e0ec b93d aea7 aabb
00000030: b119 a83c 9762 18be e6af ab3d eee7 3fbe
00000040: 4988 1ebe a30d 03be 380d 5cbd 7d6d 523d
00000050: e10b 433e b264 95bd 9d67 d13d 3148 c9bc
00000060: 5e09 b73d f674 c63d b056 de3d 982a 9b3d
00000070: 4297 08be 125f 2c3e 36ac 1dbe c73b ffbd
00000080: ce17 ccbd bf0c f4bc 52ff b03d 8e7e 153d
00000090: 8fe4 3fbe 94be 0d3e 9f81 343e e875 053e
000000a0: 8f43 3dbe c7fe de3d a82c 033e 2b1d 49bc
000000b0: fad5 bdbd 21d1 833d d13f 86bd 9e9f 0bbe
000000c0: 5c4f 173e b505 9c3d 5106 6e3d 9b10 093e
000000d0: d9be b23d e06b 17bb 7a2b 023d ef5d 093e
000000e0: 801d 07bd 018e b3bd 7ce2 f7bd 389f fcbd
000000f0: 621a 97bb f62f fb3d 4874 f63d 0933 e83d
00000100: 7cee 3d3d d450 01be 62c8 333e 51b9 2e3d
00000110: db50 1dbe 86cc 32be 7c43 32be 746c 80bd
00000120: 9baf 283e 0aea cc3c a323 dabd 7196 7f3d
00000130: 57b8 ddbd 3788 3b3d 900e 0a3e f4b9 873d
00000140: cfa9 b2bd b008 06bd c1ec a73d f777 763d
00000150: 9268 7abd dcd7 a7bc 9608 73bd 26c7 95bc
00000160: e601 2ebe d652 44be dafd 3b3e fffc fbbd
00000170: b1fe b13d 414d f33d d5ba 27bd f2f7 c0bd
00000180: 50ff b53b 7bb1 f8bc f246 1bbe c2d7 453e
00000190: eb71 1abd 4595 7fbd 5f91 c7bd 1040 ef3c
000001a0: 3e64 3a3d e1b4 2a3e 73db 57bd 5d4e ce3d
000001b0: ce51 79bd a840 963d fe93 b83a 8acf dfbd
000001c0: b7bd 943c 16a0 37bd db47 a5bb df71 53be
000001d0: f406 fdbd e078 043e e032 18bd e624 e0bd
000001e0: 1a5b 07be 9bd8 193e c197 6abc fdf2 36be
000001f0: 2017 0bbe 15fb 13be 9ba5 cabd 4d5d 78bd
00000200: 6c40 d53d ad08 803b 28e7 ab3d 71ae 643a
00000210: c90d 6fbe 61ea 3bbe 8a94 18be 802f 09be
00000220: 34a6 dbbd 73a8 143d 9f67 d73b a4c0 e53d
00000230: bf4b a83b 26a7 fabd c72c b2bd 6098 063d
00000240: 42e3 5fbc 2337 64bd b5e1 38bd 27ca 27be
00000250: 35ba 1ebe 277f 0bbe 5566 483b c0e5 50be
00000260: 583f 79bd f8b1 9dbd d879 223e e4c3 16be
00000270: 51d0 2c3d 7aa5 1bbe 5148 b0bd fb8e 3ebe
00000280: 474b 23be 8499 2dbe 650c 053d 615a 223e
00000290: c6ca f23c c805 033e cca7 213c c73f 35be
000002a0: 3eed 07be 34e6 e2bc c0ae 3cbe 90d4 d83d
000002b0: ae74 babc 0686 8abd 95f5 043d 7586 1bbc
000002c0: 23e3 1a3e 8bb0 61be 81d2 d03d aa7a 2fbc
000002d0: bd97 7a3d ec79 0e3e 27e0 22be 8b6a 28be
000002e0: 146d 24be edc0 ec3d a754 23be 0954 30bd
000002f0: 43ed bb3d 216b 22be 05b1 523e 3623 293d
00000300: cd52 82bc b4f1 2d3c 7b4f 923d 19c2 1f3d
00000310: 6965 4fbe 2be1 1b3d 148c eebd cccc 343e
00000320: 906f 2d3e 9230 f0bd 3ed1 913d a85e f63b
00000330: 156a a93d d85b a0bd 4746 0abe e52a a53d
00000340: 275c 073e fce5 043e 3413 063d c4ae 45bc
00000350: d86d e63d 169b 98bc a2c1 2d3e 5b6f 9b3d
00000360: 36b2 713d 575a 60bd 21b3 49be 85b7 b5bd
00000370: 53c8 da3d 5dab 263e 59a0 0b3e 9a6f f2bd
00000380: 264c e63d dbf7 f43a c795 29be 8ffa 04bb
00000390: d9bb 2e3e f3e2 2abe c03a 153d d99a dc3d
000003a0: 813c d1bd a70a 1a3e 4466 153e 9e63 353e
000003b0: 6d93 e6bd ea2d a73c 475e 173e d8ad 513e
000003c0: 61fc 96bd cd0e d13d 32b3 a03d e87d 1bbd
000003d0: 3af8 153e a455 953d ce43 adbd 122a 9fbd
000003e0: 595b 88bd ba52 3cbe 6824 01be db44 d93c
000003f0: 1091 693d f706 acbd 2902 80bd 4c85 273e
0.21167302 -0.0018160624 -0.0029606721 -0.09944124 0.0268278 0.08160165 -0.16652317 0.04427637
0.06425437 0.1668333 0.090783834 -0.0052079773 0.020520063 -0.14881359 0.08383159 -0.18740818
-0.15481676 -0.12798171 -0.053723544 0.051373947 0.190475 -0.07294597 0.10224841 -0.024570556
0.089373335 0.09690277 0.10856378 0.075764835 -0.1333895 0.16833141 -0.15397725 -0.124625735
-0.09965478 -0.029791234 0.086424485 0.036497645 -0.18739532 0.13842231 0.17627572 0.13033259
-0.18482803 0.10888439 0.12810004 -0.012275021 -0.092693284 0.064363725 -0.06555141 -0.13635108
0.14776367 0.07618276 0.058111493 0.1338524 0.087278076 -0.002310507 0.031779744 0.13414739
-0.032987118 -0.087673195 -0.12103745 -0.12335056 -0.0046112994 0.12265007 0.12033898 0.11337859
0.046370015 -0.1262849 0.17556909 0.0426572 -0.15362875 -0.17460832 -0.17408556 -0.06270686
0.16473238 0.025013942 -0.106513284 0.06239933 -0.10826176 0.0457842 0.13482118 0.066272646
-0.08723795 -0.03272313 0.08199454 0.060173 -0.061134882 -0.020488672 -0.05933436 -0.018283438
-0.16992912 -0.19172224 0.18358555 -0.123041146 0.08691157 0.118799694 -0.04094966 -0.09422292
0.0055541173 -0.030358067 -0.15163782 0.19320586 -0.037706297 -0.062398214 -0.09744524 0.029205352
0.045505755 0.16670562 -0.052699517 0.1007354 -0.06086903 0.07336551 0.0014082191 -0.10928257
0.01815687 -0.044830404 -0.005043966 -0.20648907 -0.12354842 0.12936735 -0.037157893 -0.10944538
-0.13218346 0.15024035 -0.0143184075 -0.1786613 -0.1358304 -0.14451249 -0.09894868 -0.060635854
0.10412678 0.0039072842 0.08393699 0.00087235036 -0.23345102 -0.18351127 -0.14900413 -0.13397026
-0.1072506 0.03629346 0.006573632 0.11218384 0.0051359828 -0.12238912 -0.08699947 0.03286016
-0.013665022 -0.055716645 -0.045137126 -0.16385709 -0.1550072 -0.13622724 0.0030578573 -0.20400143
-0.060851425 -0.076999605 0.15866792 -0.14723164 0.042190854 -0.15199843 -0.08607543 -0.1860923
-0.15946685 -0.16953093 0.032482523 0.1585479 0.029637706 0.12795174 0.009866666 -0.1770011
-0.13274094 -0.02769766 -0.18426037 0.10587418 -0.022760715 -0.06763844 0.032460768 -0.009492506
0.15125708 -0.22040002 0.101964004 -0.010710398 0.061179865 0.13913697 -0.1590582 -0.16446893
-0.16057235 0.11560235 -0.15950261 -0.043048892 0.091761135 -0.15861179 0.2057534 0.041293345
-0.015908623 0.010616709 0.07144066 0.039003465 -0.20253529 0.038056534 -0.116478115 0.17656249
0.16937089 -0.11728014 0.07119988 0.007518608 0.08272187 -0.07830018 -0.13503371 0.08064822
0.13218747 0.12978357 0.032733157 -0.012065593 0.1125142 -0.018628638 0.16968396 0.07589599
0.059007846 -0.054773655 -0.19697239 -0.08872894 0.1068274 0.16276307 0.13635387 -0.118376926
0.11244993 0.0018689589 -0.16561042 -0.0020290946 0.17063846 -0.16688137 0.03643298 0.10771722
-0.10216618 0.15043126 0.14589792 0.17713782 -0.11258588 0.020407636 0.14782058 0.20476472
-0.07372356 0.10207901 0.07846679 -0.03796187 0.14645472 0.07291725 -0.08460198 -0.07771696
-0.06658048 -0.18390933 -0.12611544 0.02652209 0.057023108 -0.08399766 -0.06250412 0.16359442

stem.1.weight f4 [16]
00000000: 8ffd 813f 4eb9 7d3f fd43 773f 417f 863f
00000010: 7189 873f 8a32 793f 2418 7b3f fcc8 713f
00000020: e293 743f 716c 7c3f d874 863f e005 803f
00000030: a2d2 7d3f 55a6 823f 1a85 7e3f 6af2 813f
1.0155505 0.9911088 0.96588117 1.0507585 1.0588819 0.9734274 0.9808371 0.944473
0.9553815 0.9860297 1.0504408 1.0001793 0.99149525 1.020701 0.99421847 1.0152104

stem.1.bias f4 [16]
00000000: 5848 29bd 769c f93c b2d6 85bd 3166 63bc
00000010: 871f a33b a2b6 923b 507d adbd 15d2 61bd
00000020: 7b52 39be a18a 19bd 7fa6 133d 47c9 cdbd
00000030: 4e07 72bd ab55 82bc 3bb3 6dbc 2d0b 923d
-0.041328758 0.030470114 -0.065350905 -0.013879345 0.0049781236 0.004477338 -0.08471167 -0.05513199
-0.1809787 -0.037485722 0.036047455 -0.10048156 -0.059088998 -0.01590999 -0.014508064 0.07131038

stem.1.running_mean f4 [16]
00000000: f5cb 4d3d af64 743d ffe0 ff3b 7d51 c4be
00000010: 68a3 bebe 26ce ef3d d2f2 d33d f4b7 9e3c
00000020: 8d9b 03bd 8d50 833d 627c edbd d7ae af3a
00000030: 795c 1d3d fef6 3fbe 3e04 443e dd27 1f3c
0.050243337 0.05966633 0.007808804 -0.3834342 -0.37234044 0.117092416 0.10349049 0.019374825
-0.032130767 0.06411848 -0.1159599 0.0013403547 0.038418267 -0.18746564 0.19142243 0.009714094

stem.1.running_var f4 [16]
00000000: 5c17 193c 3d59 a23b b651 4f3c 05f8 693d
00000010: d015 753d 23da 893c 8408 d33b a1c9 9a3c
00000020: 73c3 0c3b 5af2 1e3c ac01 1a3c 865f 433b
00000030: ab3a 2b3c b24f e53c 9d02 043d d427 b33c
0.009343948 0.0049544857 0.012653759 0.057121295 0.059835255 0.016827649 0.006440224 0.018894972
0.0021478802 0.009701336 0.009399813 0.0029811575 0.010450999 0.027992103 0.032229055 0.021869577

features.0.depthwise.weight f4 [16, 1, 3, 3]
00000000: 1a31 4e3e 6574 693e e81c 0e3e 859f 8b3d
00000010: 03cc 15bb 5b6b a3be 525e 3fbe 70e0 8e3e
00000020: 0ebf 673e 9998 c23d 76f8 ab3d c7aa aabe
00000030: 62cf 503e eef9 44be 6ff3 5cbe 96c4 9c3e
00000040: bd7c 00be 2c5b 31be dee4 163d a3d7 803e
00000050: cd94 913e f215 3b3d 0479 783e b5f4 753e
00000060: 050a 913c 7a6a 73be 041b a7bc ad3c dabd
00000070: 2234 263d 9b0e 99be 9434 95be 838d 9fbe
00000080: a023 6fbe 2b6e 7c3e bcab c3be 471b acbc
00000090: ceee 95be 7983 a4bd f2ec aabd 5b94 443e
000000a0: 77a9 6c3e 1fb3 0ebe 863e af3d b57d c0bc
000000b0: d375 9f3e f01d f83d afd8 84bd 4166 4f3e
000000c0: 8092 8bbe 09ad f93d f95b 793e a9b2 81be
000000d0: 6f16 c43d e521 233e 1f2e 8fbe c27b e93d
000000e0: 37d2 973e 806d 3a3d 4be3 d1bd afae ddbd
000000f0: 7558 40be 2373 d33c 320d 9dbe d775 86be
00000100: 31d8 d4bd 9715 9cbe f147 a43e c8f1 87bd
00000110: 04dc 42be 896e e13d ac1a d93d 14c2 693e
00000120: 8f11 08be e4c1 a3bd 5668 97be 1127 86be
00000130: 80cb e1bd 8997 1e3d 2904 20be 7f87 c7bd
00000140: 7bf0 b73d e1e9 4d3d 5fd1 103e 0ee7 f43d
00000150: dee5 503e ecc9 4abe 7160 313e d3e5 9dbe
00000160: ebd6 113e 2bd1 5dbe 96bd 80bc e216 d4be
00000170: 796f 7dbd 87b4 753e d7d5 13be 8245 403e
00000180: 0796 09be 75a7 ab3e 50c8 9d3e e0aa 1dbe
00000190: 7b79 8cbd 75a9 eabd 46a4 36be 3c51 e13d
000001a0: 5bdb 9cbe 292a 1dbe bef2 5fbd 9379 abbe
000001b0: 1496 89be 6d8c 203e ac5c 99be e20c 6e3e
000001c0: b690 77be 6f0f bc3c eb53 6e3e 5f8e aebe
000001d0: 1577 94be 228e 503d e741 47be 1605 243e
000001e0: f77a 6e3e bf27 653c f530 d13d 75da 7e3e
000001f0: 1475 e93d 3091 6e3e e270 56be 7f4e 833e
00000200: 3ed1 a5bd 7af8 243e 0c69 95be d5fd 70be
00000210: dda1 4ebe eced 253e c44f 573c c699 a8be
00000220: a209 b13e 165b 2c3e 0719 9e3e dc02 48ba
00000230: c223 393d eacc 763e 56e7 51be 5263 a23e
0.20135918 0.22798307 0.13878214 0.06817535 -0.0022857196 -0.31917843 -0.18688324 0.27905607
0.22631475 0.09501762 0.083969995 -0.33333418 0.2039161 -0.19235966 -0.21577238 0.30618733
-0.12547584 -0.17319936 0.03683936 0.25164518 0.28433838 0.045675226 0.24264914 0.2401913
0.017704973 -0.23771086 -0.020398624 -0.10656104 0.04057706 -0.29893956 -0.29141676 -0.31162652
-0.23353434 0.246514 -0.3821696 -0.0210091 -0.29283756 -0.08032889 -0.08345975 0.19197218
0.2311152 -0.13935517 0.08556847 -0.023497442 0.3114458 0.12115085 -0.064866416 0.2025385
-0.27260208 0.12191207 0.24351491 -0.2533162 0.09574591 0.15930898 -0.27964875 0.11400558
0.2965257 0.045514584 -0.10248431 -0.10824334 -0.18783744 0.025811737 -0.3067413 -0.2626178
-0.10392798 -0.30485222 0.32086137 -0.06637913 -0.19029242 0.11007411 0.106007904 0.22827941
-0.13287948 -0.07995966 -0.2957179 -0.2620168 -0.11025143 0.038718734 -0.15626587 -0.09742641
0.08981415 0.050271872 0.14142369 0.11958133 0.20400187 -0.1980359 0.17321946 -0.30839404
0.14242141 -0.21661822 -0.015715402 -0.41423708 -0.061873887 0.23994647 -0.14437042 0.18776515
-0.13436137 0.33526197 0.3081689 -0.15397215 -0.06859108 -0.114581026 -0.17836103 0.11001822
-0.30636105 -0.15348114 -0.054674856 -0.3349119 -0.26872313 0.15678568 -0.29953516 0.23247102
-0.24176297 0.022956578 0.232742 -0.34092996 -0.28997102 0.0509168 -0.19458733 0.16017565
0.23289095 0.013986527 0.10214416 0.24888022 0.11399284 0.23297572 -0.20941499 0.25645825
-0.080965504 0.16110411 -0.29181707 -0.23534329 -0.20178933 0.16204041 0.013141576 -0.3292982
0.34577662 0.16831622 0.3087847 -0.00076298206 0.045200117 0.24101606 -0.20498404 0.317164

features.0.pointwise.weight f4 [32, 16, 1, 1]
00000000: 9a15 3cbe 3e78 47ba ebbe 01be e008 3bbe
00000010: 6c1d 353e 7380 dbbd 0fd0 c9bd ed0f 6c3e
00000020: 1eec 8f3e 05e8 61be d9c6 c33b 4140 393e
00000030: f0e2 3f3e 907c 8ebd 2244 33bd bcef 26be
00000040: a683 3e3d 701a b23d 7efa 60bd 59c6 2bbd
00000050: 64eb 55be 50fc 02be ea30 83bd 40b8 1c3e
00000060: b04b 373e a1cf 0a3e b10b 4dbe 8917 89bc
00000070: c036 9ebd 1a33 753e be6b 0e3e ce73 3dbe
00000080: 0f9a efbd e9ac 59be d7df 07bd 33b5 5cbe
00000090: 3fcf 383e 910d abbd ab2a 94bd 8623 a7bd
000000a0: bbfa c4bd cbf9 3c3e 76ef 853e 18e3 64be
000000b0: 6ef5 ee3d fe97 bbbc 737c c63d 8f9f 17be
000000c0: 63f4 5fbc 8a8b 61bc 52df 873d bdb2 103e
000000d0: d40d 9d3d 996c 0b3d 0318 72be 259b adbd
000000e0: f027 52be b4ac 7fbe 994c 5d3e cbcc c9bd
000000f0: c981 3dbe ab9f ffbd 8773 573e e120 43be
00000100: 98fd 22be 588c 3dbe aff3 7bbc 8557 a3bd
00000110: d62f 4fbe fda3 74be efb8 7fbe dea1 bd3d
00000120: 9375 0b3e 88f2 463d 415d e4bd 29b7 12be
00000130: f751 eb3d 717f a1bd e759 8fbd 9487 b9bd
00000140: 864c 813d 2d33 4e3d 72c0 4f3e 47df 853e
00000150: 47a4 c5bc 832f 163d a3d9 e2bd a99a 5bbe
00000160: 0ec8 783e 3955 cc3c 1556 01be 8503 4b3e
00000170: 0180 ef3d 83aa 3f3d 01df 063e bdec f43c
00000180: 6436 51be 7da1 79be 222d 1b3e 560e 903e
00000190: e9d1 63be d4fb 343e 6b76 5ebe 5b0c 443e
000001a0: 7f35 f63d 2ffd f93d 8539 2a3e f903 a5bd
000001b0: 6087 9ebd 246b d73c 8450 2c3e 80e9 843e
000001c0: 2631 363d 9212 803d 68c8 6ebe 5e89 66bd
000001d0: 988d b93d 977d 1d3d b758 813e 1df4 12be
000001e0: a778 43be c7c9 35bd 812b 953c ee60 83be
000001f0: b369 3a3e 2c77 8f3d 97d8 723d 6721 a73d
00000200: f880 69be ebe0 42be bace 3bbe dcb0 313e
00000210: dad5 2cbe e38c 783e 2043 6ebd 86a2 5d3d
00000220: 879d 603e de67 1bbe 8af4 95be 7a77 5c3d
00000230: 72a6 25be 9fa7 fa3d d2a6 023e fd4d 033e
00000240: e493 803d f3f2 26be 31de 80be 7a62 18be
00000250: 0887 853e 8a39 cabd 4470 e5bc 56ac c2bc
00000260: 7a07 b0bd 49f2 063e b542 dbbb 8aa9 ddbd
00000270: af3d 8d3e ed2c 6c3e d71a 053e 03f9 333e
00000280: 373c 0dbe 3aed ea3d 4aba bcbd 1a2c 9c3c
00000290: bc9d 193e 019e 5ebd 4b6d 363e 4388 37bd
000002a0: 4571 053e d39d 093d e5e2 7dbe 4bea 31be
000002b0: 71bc 70be 9d77 403b 4c66 4bbe b449 80be
000002c0: aed6 823d b3c0 5abe 3f30 fabd 8205 5abe
000002d0: d104 3e3e eed5 5f3e fe12 143e 4f46 50be
000002e0: 01f2 253e d8da 6a3e 14ac 963c 448a 393e
000002f0: 5e41 0d3e 9182 e3bd b5e9 abbc 90bb 1bbe
00000300: 28c1 b93d f5e3 c63d b905 74be c0ef ccbd
00000310: fc96 f6bc b9e7 8a3e c3f5 08be 90ff 243d
00000320: 37b5 1cbd 6554 cdbd fff7 6bbe 99db 61bd
00000330: bf43 76bd e951 a2bd 56c8 053d 5b47 14bd
00000340: 73f7 3dbe 40ae 363e 908c 163e ac46 32bc
00000350: 5150 e2bc 1846 89be e92a d8bd 6f77 debc
00000360: dbc4 3bbc ecfa 9b3d 3bac 29be 1a74 723a
00000370: 51f4 b53d 16f5 7c3e 871e 883e d635 50be
00000380: 647f 8a3b ea56 93bd 288b 833c 4be3 023e
00000390: a8af 97bd 0746 07bd c8e6 8cbe 32c0 3cbd
000003a0: c912 9cbe 779c 303e c054 48be 573a a5bd
000003b0: cd2b 22be d74d 0a3e 6a6c a6bd ea70 833e
000003c0: 8e6e f9bd c6aa 1b3e 19bf 47bd b662 69be
000003d0: e25b 8b3e 4fec efbd 5ab6 3cbe 2798 2c3e
000003e0: a5bc 13bd 4aa7 7dbc 2e58 8f3e 46a9 48be
000003f0: b525 eebd 9fc1 123d 1a80 0d3c fb1d 31bc
-0.18367615 -0.0007609165 -0.12670486 -0.18265104 0.17687005 -0.10717859 -0.09854137 0.2305295
0.2810983 -0.22061165 0.005974632 0.18090917 0.18738914 -0.06957352 -0.04376615 -0.16302389
0.04651227 0.08696449 -0.054926388 -0.041937206 -0.20890576 -0.12791562 -0.06405814 0.15304661
0.17899966 0.13555767 -0.20023991 -0.016734855 -0.077252865 0.23945275 0.13908288 -0.18501207
-0.11699306 -0.21257366 -0.033172455 -0.21553497 0.18047808 -0.08352197 -0.07234701 -0.081610724
-0.096181355 0.18454663 0.26159257 -0.22352254 0.11667906 -0.022899624 0.096917056 -0.1480696
-0.013669106 -0.013766179 0.06634392 0.14130683 0.07668653 0.034039114 -0.23641972 -0.08476857
-0.20523047 -0.24968225 0.21611251 -0.09853514 -0.1850654 -0.12481626 0.21040164 -0.19055511
-0.15917051 -0.18510568 -0.015377923 -0.079756774 -0.20233092 -0.23890682 -0.2497289 0.09259389
0.1361907 0.04857114 -0.11150599 -0.14327683 0.11490243 -0.07885636 -0.069995694 -0.090590626
0.06313424 0.050341774 0.20288256 0.2614691 -0.024126185 0.036666404 -0.11076667 -0.21445717
0.24295065 0.024942981 -0.12630494 0.19825561 0.11694337 0.046793472 0.13171007 0.029898042
-0.20430905 -0.24378009 0.15153936 0.28135937 -0.22248043 0.1767419 -0.2172486 0.19145338
0.12021922 0.12206494 0.16623504 -0.08057398 -0.077406645 0.026296206 0.1682759 0.25959396
0.044480465 0.06253542 -0.23318636 -0.056283347 0.0906021 0.03844985 0.25262997 -0.14350934
-0.19088994 -0.044381883 0.01820922 -0.2565989 0.18204384 0.07005152 0.059288587 0.08160668
-0.22803104 -0.19031112 -0.18340579 0.17352623 -0.16878453 0.24272494 -0.058169484 0.054110073
0.21935092 -0.15176341 -0.2928813 0.05382488 -0.16176775 0.122390024 0.1275895 0.12822719
0.06278208 -0.16303615 -0.2516952 -0.14881316 0.26079583 -0.09874256 -0.028007634 -0.023763817
-0.08595176 0.13178362 -0.0066913017 -0.10823353 0.27586123 0.23064013 0.1299852 0.17575459
-0.13792501 0.114710286 -0.09215219 0.019063998 0.15001577 -0.054349903 0.1781513 -0.044807684
0.1303149 0.03359778 -0.24793585 -0.17374532 -0.23509385 0.002936817 -0.19863242 -0.2505623
0.06388603 -0.21362571 -0.122162335 -0.21291164 0.18556525 0.21858951 0.1446037 -0.2033932
0.16205598 0.22935045 0.0183926 0.1811915 0.13794467 -0.11108888 -0.020985464 -0.15208268
0.09070045 0.09711448 -0.23830308 -0.10006666 -0.030101292 0.27129915 -0.13375 0.040282786
-0.038258757 -0.100258626 -0.23043822 -0.055141065 -0.0601232 -0.07925779 0.03266176 -0.036200862
-0.18551426 0.17839909 0.14702058 -0.010881107 -0.027626188 -0.2681129 -0.105550595 -0.02715656
-0.011460508 0.07616219 -0.16569607 0.0009248868 0.0888449 0.24702868 0.2658579 -0.20333037
0.004226612 -0.07194312 0.016057566 0.12782018 -0.07406551 -0.033025768 -0.27519822 -0.04608173
-0.30483082 0.17247187 -0.1956358 -0.08067768 -0.15837021 0.13506256 -0.08126147 0.25672084
-0.1217929 0.15201864 -0.04876623 -0.22791561 0.2721854 -0.11714994 -0.18428937 0.16854917
-0.036068577 -0.015481779 0.27996963 -0.19595823 -0.11628286 0.035829183 0.008636499 -0.010810371

features.0.bn.weight f4 [32]
00000000: 058b 7f3f 55aa 823f 4cfc 7f3f 787e 843f
00000010: df66 823f bc9e 7f3f b468 833f ac6d 823f
00000020: 2610 7e3f e963 6e3f 0025 7a3f 1308 833f
00000030: b4bf 813f 984d 823f bbc6 783f 55f2 833f
00000040: a267 813f 0524 7a3f 93ee 773f 2b58 803f
00000050: fb9c 803f d279 783f 4d4a 6c3f 9e15 873f
00000060: 4b5b 793f a57a 843f f068 803f b369 803f
00000070: 1af9 803f a444 823f d40f 803f 301f 813f
0.998215 1.0208231 0.9999435 1.0351095 1.0187644 0.99851584 1.0266328 1.0189719
0.9924339 0.931212 0.9771271 1.0236839 1.0136628 1.017993 0.9717824 1.0308329
1.0109751 0.9771121 0.9684841 1.0026907 1.0047907 0.97060883 0.92300874 1.0553472
0.97404927 1.0349928 1.0032024 1.0032257 1.007602 1.0177197 1.000483 1.0087643

features.0.bn.bias f4 [32]
00000000: 0118 07be faf3 b4bc c26f 573d 176c bb3d
00000010: 91ff 65bd bf22 083d 9cc3 feba d761 75bd
00000020: 9029 ef3b 1b7f 6abd 8e08 1a3c a49c 833d
00000030: f1b3 2ebd eca0 a23d fd94 5f3d e180 21bb
00000040: a7f1 b9bd a439 27bc 750c 9e3d 4a7b a93c
00000050: 03ca 1a3d 4a8b 493c ba1f a5bb 90d5 c93d
00000060: f24c d7bb 4bc0 b53b 1734 9c3d 3e48 6cbd
00000070: d994 82bd 3c29 78bd 1d16 0a3c ec9c 8b3d
-0.1319275 -0.022088993 0.052596815 0.09151476 -0.05615193 0.03323626 -0.0019436958 -0.05990776
0.007298656 -0.057250123 0.009401454 0.06426361 -0.042652074 0.0794085 0.054585446 -0.0024643468
-0.09079295 -0.010206614 0.0771722 0.020688672 0.03779031 0.0123012755 -0.0050391825 0.09855187
-0.006570452 0.0055466047 0.07627123 -0.057686083 -0.06376047 -0.0605862 0.008428124 0.0681704

features.0.bn.running_mean f4 [32]
00000000: e503 81be 94b1 5fbd 493d 273e 3014 a0ba
00000010: 2b64 a2bd ac78 72be 811a 1e3c d841 bf3d
00000020: dc50 24be 9e31 4c3e 57d8 ebbd 3e75 7abd
00000030: 4c5e 133d f4fa f8bd 7e7c 8b3e 04a5 833e
00000040: 6004 7d3e 8a66 87bd e181 4e3d ef35 b6bc
00000050: 4bc7 94be 6ca0 37bd 1c97 cabd cafb 1dbe
00000060: 42b3 8cbe 1028 3e3e 9c11 16be a7ad 8bbe
00000070: 0327 9f3e f680 35be d8aa 6cbd 40a2 f1bc
-0.25198284 -0.05461271 0.16331972 -0.0012213048 -0.07929262 -0.23678845 0.009649874 0.093387306
-0.1604647 0.19940802 -0.11515873 -0.061146967 0.0359786 -0.121572405 0.27243418 0.25711834
0.247087 -0.06611355 0.05041683 -0.022242514 -0.29058298 -0.044830725 -0.09892103 -0.15428081
-0.27480513 0.1856997 -0.14655155 -0.27280924 0.3108445 -0.17724976 -0.057780117 -0.029496312

features.0.bn.running_var f4 [32]
00000000: ad1c 993d 8b44 ed3c af14 903d c2b3 213d
00000010: a4e5 fd3c a93c 3a3d 47ea c43d 5c78 273d
00000020: 4f1d 5c3d 31cf 753d 39ea 373d 1fd6 913d
00000030: a155 273d 3bd2 7b3d 1e61 8f3d a51d 843d
00000040: 51d1 063d 7e57 363d 9061 4f3d 3aff b03d
00000050: 0ee0 9b3d 3c6c 813d 3062 a03d 53cc 8f3d
00000060: 54c1 213d 7bc6 0a3d acb1 cb3d 5151 0c3d
00000070: 9f4a 493d a64d 5a3d e09f 3a3d 38ee 9e3c
0.074761726 0.028963348 0.07035195 0.03947807 0.03099329 0.045468006 0.09614997 0.040886268
0.05373889 0.060012046 0.044901107 0.071209185 0.040853146 0.06147979 0.070009455 0.06450967
0.032914463 0.044517033 0.050630152 0.086424306 0.076110944 0.06319472 0.07831228 0.070213936
0.039491013 0.033880692 0.099459976 0.034257237 0.04914343 0.053296708 0.045562625 0.0194007

features.1.depthwise.weight f4 [32, 1, 3, 3]
00000000: c30f a3bc 116a 183e 19c3 193e aab8 1bbe
00000010: 2ec3 863e 55a3 8dbc a734 503e c7e8 8dbe
00000020: a66d 863e 5680 033e 4df3 c63d 6865 94be
00000030: f733 21bd 9107 0cbe 4acf b13e 8ffc a2be
00000040: 9e81 9cbd a48f 1ebe 96e1 8cbe 33de 1e3e
00000050: 8ebc 20be 2990 5d3e b85c e03d 5feb 52be
00000060: 7416 9cbd bd7f 34bc 944e 63bd 45ed 5ebe
00000070: f511 8fbe 4f9b cd3d 993b 6abe bf52 3a3e
00000080: cc75 453e 7579 da3e e26f 913e b945 4bbe
00000090: 2709 84bd a551 813e 3e14 88bd d6ee 53be
000000a0: 7df3 03be e28e a13e f98f 7cbe 75bf 2f3e
000000b0: 1a5c 86be 1eb5 3a3e ddc5 013e d8f6 583e
000000c0: 510f cabb 69a3 333e 024b a13e 6207 5b3c
000000d0: 1b55 7bbe 7a28 8dbe 3bb8 6e3e ba84 66be
000000e0: ff3a 89be 74f3 92be cf28 6ebd c53c 3a3e
000000f0: dfee a4be 6728 e6bd 7f57 c83e 6ed6 92bd
00000100: 3e05 edbd 90ac d33d b21f 74be c746 3fbe
00000110: e557 a23d 13b6 473e 6319 acbe 1c2b c53e
00000120: 2ed0 bebd cd40 e2bc 29ba 793e 113e b13d
00000130: 217c ad3d 7375 acbe ee7a a3be 80a7 0e3e
00000140: 70ec 643b 03e9 0f3e cb04 6f3e 3909 8bbe
00000150: 41cf 883d 05d3 85be 935a d6bd e845 1a3d
00000160: 916b 8fbd 193f f3bd b73a 583d 855d 563e
00000170: 9880 85be cc76 c23e 782e 4a3e 44c7 61bd
00000180: 4551 a2be 7c14 ddbd e6e5 c83d 2d7e 11be
00000190: 055e aebd d0ae 13be 8543 8d3e 624d 963e
000001a0: 9217 9abe ead8 febd b328 ac3e 36db 363d
000001b0: d0a5 93be 5691 533d 9cc4 813e 5826 57bd
000001c0: efde b2be d5cb fdbd 4fec f53d 486a c9bb
000001d0: 35ba 4c3e d3fa 083e a4f7 453d 696c 363e
000001e0: 777b 41bc d6b1 a6be 2318 70be 9a8a aebe
000001f0: cd83 68bd 5e7b 52be 6fc6 143d ccdc 3c3d
00000200: f521 953e 9e3d abbc 029e d23d e453 1c3e
00000210: 4fef 28bd ba8d 1abe 2b75 8fbe 88f2 c2be
00000220: 3dda 24bc 6289 30be cd74 763d 1ba0 813d
00000230: 1736 833e 2f50 d4bd 05f5 c63c a421 7e3e
00000240: dd0d 123d 46c9 ff3d 2751 54be de78 59be
00000250: b4d0 8d3e 3233 993e 64d0 ecbd 08d3 af3d
00000260: 1755 8fbe fe15 f03c 0942 92be c90c c83d
00000270: b927 a4be 5777 e2bd 232e aa3e b545 e2bd
00000280: 1213 28be 4627 a73e 0b47 4ebe 6d09 723d
00000290: 346b 8f3e b27c 033e 2393 4fbe 38c2 533e
000002a0: 57e9 403e 63ba 5abe d9a0 2fbe 0caa a7bd
000002b0: 3ce4 793d 6b2f 073e b6be d83b 8f06 3e3e
000002c0: 4ce5 b93e 52de cb3d 662a aa3d 723e 623e
000002d0: c55b 9f3d aeac 953d c5d4 b13e bf8e 273e
000002e0: 1cb4 3c3e 704b 2abe cd1b fbbd 4b08 5ebe
000002f0: fec2 9abe 8ee8 573c 5013 193e 08b8 a33c
00000300: 29a1 a2bd cd9e 313c 5a43 5ebe 0f3c 72be
00000310: de12 3d3d a835 5cbe fb45 39bc 8ac1 573e
00000320: b3fa b53d 01b1 6c3e 89f4 5fbe 17d5 8c3c
00000330: ca63 9cbe dbcb 16bd b995 78be a581 b43e
00000340: d50b 97be d27b e43d 2c72 3abe 77ae da3d
00000350: 4be6 b73b b758 b2bd 7289 2bbe 7281 7c3e
00000360: 561c 953c 5a60 7c3c 42f1 05be f6fb 5dbe
00000370: 7ec3 1ebe f873 ab3e ca42 9a3e 91db 1cbe
00000380: 16ed 233b 26ed cc3d dd77 a33e 912f f93c
00000390: 1cb8 153d b452 8cbd a6a7 bb3d 3d1c c4be
000003a0: c628 aabe 585f afbd 0ebb a7be 62f0 63be
000003b0: 3f6a f1bd f9c2 413e 2fa2 383e 95b8 bcbd
000003c0: 1159 463c 4974 683e 01d7 183e 2845 a13e
000003d0: bbbc abbd 7f84 babe df81 fcbb 9a6f 683c
000003e0: 0410 8dbd 640e 56be 28f1 803e e230 a7be
000003f0: adca cebc 93a6 153e 14e5 b1bd beac 3d3e
-0.019904977 0.14884211 0.1501583 -0.15207162 0.26320785 -0.017289797 0.20332585 -0.27716658
0.2625553 0.12841925 0.09714375 -0.28983617 -0.0393562 -0.13674761 0.34728462 -0.31833312
-0.0764191 -0.15484482 -0.27515858 0.1551445 -0.15696928 0.21637024 0.10955185 -0.205976
-0.0762147 -0.011016783 -0.05549486 -0.21770199 -0.27943388 0.100393884 -0.22874297 0.18195628
0.19283217 0.4267079 0.28405672 -0.19850816 -0.06447058 0.25257602 -0.06644486 -0.20696577
-0.12885852 0.31554323 -0.24664296 0.17162879 -0.26242143 0.18233153 0.12673135 0.21187913
-0.0061663766 0.17542805 0.3150254 0.013368459 -0.24544184 -0.27569944 0.23312466 -0.22511569
-0.26802823 -0.28701365 -0.058144387 0.18187244 -0.32213494 -0.11238175 0.39129254 -0.071698055
-0.115732655 0.10335648 -0.23840216 -0.18679343 0.07926921 0.1950305 -0.3361312 0.38509452
-0.09317051 -0.02761879 0.2438742 0.08654416 0.08470941 -0.33683357 -0.31929725 0.13931084
0.0034930967 0.1405373 0.23341672 -0.27155474 0.066801555 -0.26137558 -0.104664944 0.037664324
-0.070029385 -0.11877269 0.05279037 0.20934112 -0.26074672 0.3798126 0.19744289 -0.055121675
-0.3170263 -0.10794923 0.09809475 -0.14208288 -0.085140266 -0.14422154 0.27590576 0.29355913
-0.30096108 -0.12443717 0.336248 0.04464265 -0.28837442 0.051652275 0.25345314 -0.0525268
-0.3493571 -0.123923935 0.12007963 -0.006146703 0.19992907 0.13376932 0.04833187 0.17814793
-0.0118092215 -0.32557553 -0.23446707 -0.3409012 -0.05676632 -0.20554873 0.036322054 0.046109006
0.2912747 -0.020903405 0.10284044 0.15266377 -0.041243847 -0.15093127 -0.2801908 -0.38075662
-0.010061798 -0.17239907 0.060169984 0.06329366 0.25627205 -0.10366856 0.024286756 0.2481752
0.035657752 0.12489562 -0.20734082 -0.21237513 0.2769829 0.2992187 -0.11563185 0.08585173
-0.27994606 0.029307362 -0.28566006 0.097680636 -0.32061556 -0.110579185 0.33238325 -0.11048452
-0.16413525 0.3264715 -0.20144288 0.05909102 0.28011477 0.12840536 -0.20270972 0.20679557
0.18839012 -0.21360163 -0.17151202 -0.08186731 0.061008677 0.13201682 0.0066145314 0.1855719
0.36307752 0.099545136 0.08308868 0.22094133 0.077811755 0.07308327 0.34732643 0.16363047
0.18428081 -0.1663034 -0.12261162 -0.21682851 -0.30226892 0.013178004 0.14948773 0.019985214
-0.07940895 0.010841084 -0.2170538 -0.23655723 0.04616057 -0.21504843 -0.011308189 0.21069923
0.08885708 0.23114397 -0.21870627 0.017191453 -0.30544883 -0.036815505 -0.24275865 0.3525516
-0.29501215 0.11156429 -0.18207616 0.10677808 0.00561217 -0.08708327 -0.1675165 0.24658754
0.018201988 0.015403831 -0.13080314 -0.21678147 -0.15504262 0.33486915 0.3012908 -0.15318133
0.002501314 0.1000617 0.31927386 0.03041819 0.036552534 -0.06851712 0.09162836 -0.38302794
-0.33234233 -0.08563107 -0.327599 -0.22259668 -0.11787843 0.18922032 0.18030618 -0.09214894
0.012106196 0.2270061 0.14925767 0.31498075 -0.08385607 -0.36429211 -0.0077059115 0.014186764
-0.0688782 -0.20903927 0.25183988 -0.32654482 -0.025243128 0.14614324 -0.08686271 0.18522927

features.1.pointwise.weight f4 [64, 32, 1, 1]
00000000: 53f7 ca3a 549e 40be f1b1 8cbe dec3 333d
00000010: be21 16bd d774 03be 460b 62bd f44b 42be
00000020: 951e 803d aca1 9ebc b602 e33d bd96 4abd
00000030: cd8e e8bc fa76 e83b 077b bdbd 5f55 463e
00000040: 1f14 773d 23b4 d53d 1aa1 a7bd 9b44 c83d
00000050: 93f4 c0bc 388a 503d 60bb 673e ba53 37be
00000060: d778 ecbd 8db8 e6bd 7983 ec3d 68f3 01bc
00000070: a2bb f83c b6f0 0a3c bc6c f2b9 3d6a 8ebd
00000080: a902 d9bd db5d 623d 1b23 093e 140b c13d
00000090: 76cc 2cbe ddb0 8e3d b627 78bd 1486 243e
000000a0: 5f1a d53d ece3 c1bb 87c0 113e aeb4 0cbd
000000b0: 1b78 95bd 7564 f33c 9cdb 883d b618 733c
000000c0: cd22 653e 6e6c a2bd 47e6 0b3e 3a9e 01bc
000000d0: 8671 b83d 897c ac3d 8ef0 e53d 5518 57bd
000000e0: 4ad4 d2bd c148 f5bd 8e67 6cbe 8c6a e6bd
000000f0: 86f0 d13d 9c8e 123e 742d cebd 3e4a 16be
00000100: 4bc5 4d3d 3063 bc3d 7994 23be 608a 3e3d
00000110: 0310 c7bd 9efc b9bc edc0 6dbc b18c 1bbe
00000120: 777a cfbc a9fb 993d 8587 3a3d 40e7 733e
00000130: 4d87 253e fbf8 82be c362 c1bd 9732 8e3d
00000140: a620 0dbe 6a74 213d 9a58 a13d 3f01 32be
00000150: 223a 3e3e 7710 04be be26 abbd 33aa 4abe
00000160: 33ad 483d 2c0e e23b 7576 453d f7cc 96bd
00000170: dbbc 103e 2d90 b2bd 7b2b 493e 30b7 4b3d
00000180: 7488 18be 609e 0d3e a459 133d 3ea6 58be
00000190: 6803 b53d 70b9 243e f730 f3bd 9b87 fabc
000001a0: ffdd 61be 777b 953c 3586 843d 4dca fb3d
000001b0: 4aa7 6b3d 5c67 da3c e9cc 893d 4561 0abe
000001c0: 1916 443e ab0c 1ebd 6318 beba d314 003d
000001d0: 1a67 0d3d 5f75 35be 4305 4cbd d028 213d
000001e0: 3ea5 18be e139 01be 4304 813c 88e2 3fbe
000001f0: a7a1 883e 8c0a ac3d ad39 833d 075b e9bd
00000200: a355 703d 86f9 65bc b0ea 883c d9f6 e53d
00000210: 4bee 32be 46c0 9cbd 8258 63bd 156f cb3d
00000220: 213d 1a3e 2fcc e0bd c0c5 3fbe 95d1 54bd
00000230: 3833 b33d 7d8b c8bd 2f59 a53d 6e71 4e3e
00000240: b210 43be 77bc 453d e892 973d 74b6 59bd
00000250: b84c f23d 7415 33bd bbc3 023e 7f27 e1bd
00000260: ff9e 483e 5292 ae3c 1e61 11be 8240 b73d
00000270: e962 adbd 38d1 d6bc c272 153e 1833 803d
00000280: 7c88 493d e01b ebbd 4a7c bcbd 3d30 13be
00000290: 7380 eabd 9ecd 37be 2851 983d 050b e6bc
000002a0: 5ee8 d3bd 3ba1 d03d 731b 533b d2f2 90bd
000002b0: 6b69 3c3d 1e16 0c3d db0e 0e3e 25a6 253d
000002c0: 0d45 043e 5102 9ebd 8e18 573e 4361 b93d
000002d0: a5b7 903c fe9f 1ebc 5853 29be c304 753d
000002e0: f9f3 0b3e 13ab ff3d c7c5 3b3e ee33 4dbe
000002f0: 0b01 ef3d b53b d83d e2d8 05be 5fcd 103e
00000300: ff3a 9a3d 3c36 96bc 38ff 3f3e bc9d a138
00000310: 7070 cf3d 000f 52be 9f73 1bbe 3d34 713d
00000320: dd1b e5ba 723c 2dbe a3c0 c6bd 90eb 223e
00000330: b695 213e 5210 4bbe add7 ffbd 4706 b2bd
00000340: d816 39bc 52da f6bd 2174 643d 5e0c 60be
00000350: 7e4c d43d 6f8e e2bc c3c5 2abe cd58 a03d
00000360: c5a4 00be 25d3 e53d 499c fbbd 615f df3b
00000370: cbe5 053e 437d f4bd 9446 2abd 0bbc 2a3e
00000380: 5f11 263e 5f42 bbbc fbf4 0b3e 30b0 47bd
00000390: bdcb 3d3e 0b75 ff3c 5b95 4d3e fd81 10bd
000003a0: 41eb e5bc 0e6e bbbd ae51 253b 829f cb3d
000003b0: 7537 b63d 78f0 21bd 9d0f c73d 0500 533e
000003c0: bf9f 993c 7f8f a0bc 6b22 d03d a162 153e
000003d0: 6f7e 443e 5da4 b03d 5d7f 813d 42b8 8bbd
000003e0: 0cd7 4f3d 387e 48be 3a05 2fbb 3d76 113d
000003f0: 0a04 54bd a578 223e 7559 383d a80d 293e
0.0015485085 -0.18810397 -0.2747951 0.043887965 -0.036653273 -0.1283754 -0.055186532 -0.18974286
0.06255833 -0.0193642 0.110845014 -0.04946016 -0.028388405 0.0070942612 -0.09251981 0.19368504
0.060321923 0.10434749 -0.081850246 0.097787105 -0.023554122 0.050913066 0.22630072 -0.17903033
-0.11546486 -0.11265669 0.11548514 -0.007931568 0.030362908 0.0084802415 -0.0004623885 -0.06953857
-0.105962105 0.05526529 0.13392298 0.09425941 -0.1687487 0.06967328 -0.060584746 0.16066772
0.104054205 -0.005917063 0.142336 -0.034351997 -0.07298299 0.029710988 0.06682512 0.0148374345
0.22376557 -0.079308376 0.13662063 -0.007911259 0.09006028 0.08422191 0.11227523 -0.05251344
-0.10294397 -0.11976767 -0.23086378 -0.11250791 0.10250954 0.14312214 -0.10067263 -0.14676759
0.05023698 0.09198606 -0.15974607 0.046518683 -0.09719851 -0.022703465 -0.014511329 -0.15190388
-0.02532695 0.075187035 0.045539398 0.23818684 0.16164894 -0.25580582 -0.094426654 0.06943243
-0.13781986 0.03941766 0.078782275 -0.17383288 0.18576863 -0.12896906 -0.08356999 -0.19791488
0.0489933 0.006898662 0.048208673 -0.07363313 0.14134543 -0.087189056 0.19645493 0.049735248
-0.14895803 0.13829947 0.03597416 -0.21157166 0.0883854 0.16086364 -0.11874574 -0.03058224
-0.22057341 0.01824735 0.064709105 0.12294445 0.057532586 0.026660614 0.06728537 -0.13513668
0.19149055 -0.0385863 -0.0014503117 0.03126986 0.034522153 -0.17720555 -0.049809705 0.039345562
-0.14906785 -0.12619735 0.015749102 -0.18738759 0.2668583 0.08400449 0.06407485 -0.11394315
0.05867542 -0.014036542 0.01671347 0.11228723 -0.17473714 -0.07653861 -0.05550433 0.099332966
0.15062381 -0.10976445 -0.1872778 -0.051957686 0.087500036 -0.0979223 0.08073651 0.20160457
-0.19049338 0.048275437 0.07401067 -0.053152516 0.11831039 -0.04372163 0.12769978 -0.109938614
0.19591902 0.021310005 -0.14197204 0.08947851 -0.08466131 -0.02622281 0.14594558 0.06259745
0.049202427 -0.11479926 -0.09203394 -0.1437387 -0.11450281 -0.1794953 0.07437354 -0.028081426
-0.10347055 0.10187002 0.0032212406 -0.07077564 0.045998972 0.03420078 0.13872854 0.04044165
0.12916966 -0.077152856 0.2100546 0.09051754 0.017665694 -0.0096817 -0.165357 0.059818994
0.13667287 0.12483802 0.18337165 -0.20039341 0.11670121 0.10558263 -0.13071015 0.14140843
0.07530784 -0.018336408 0.18749702 7.7064586e-05 0.101288676 -0.20513535 -0.15180825 0.05888771
-0.0017479617 -0.1691759 -0.09704711 0.15910172 0.15779766 -0.19830444 -0.12492309 -0.086926036
-0.01129695 -0.1205336 0.05577481 -0.21879718 0.10366152 -0.027655808 -0.16677003 0.078294374
-0.12562855 0.11221913 -0.122856684 0.00681679 0.1307594 -0.11937954 -0.041571215 0.16673295
0.16217564 -0.022858797 0.13667671 -0.04875201 0.18534751 0.03118374 0.20076506 -0.035280216
-0.02806628 -0.09151851 0.0025225687 0.09942533 0.08897296 -0.03953597 0.09719775 0.20605476
0.01875293 -0.019599674 0.10162815 0.14588405 0.19188856 0.086251 0.06323121 -0.06822254
0.050742194 -0.19579399 -0.0026705996 0.03551315 -0.051761664 0.15866335 0.045007188 0.16509116

features.1.bn.weight f4 [64]
00000000: d6d5 803f 5ab6 803f aedf 713f f652 773f
00000010: 1ab4 7f3f cf8f 763f eb6c 763f 619c 7d3f
00000020: ff1c 6d3f 12ef 743f 505e 823f 61dd 773f
00000030: 6329 743f dd0d 7d3f 5e4c 793f ccbc 873f
00000040: c78a 823f 2706 7f3f 55f0 7b3f eed4 853f
00000050: 7cb2 813f fcd5 843f 89fa 853f 32bd 883f
00000060: 942e 7a3f 335d 7e3f ec7a 873f cd42 793f
00000070: 7273 843f f8c7 853f 0dcc 813f e37a 803f
00000080: 9c8b 753f 8211 853f f401 723f 5891 773f
00000090: a2c8 803f a1d4 713f 99d4 843f 841a 803f
000000a0: 8c82 7b3f 0034 783f 2eb1 813f e8a0 813f
000000b0: 3693 843f bced 833f 45d5 7c3f 0092 7b3f
000000c0: 4baf 8a3f 3ec1 823f 9b32 833f 8c9e 803f
000000d0: 3ac8 833f bea3 863f 98d0 7c3f fd6c 843f
000000e0: 4147 7f3f 016d 803f 7e18 813f 9f9d 813f
000000f0: cf12 793f 6a77 8c3f 70a0 813f b467 833f
1.0065258 1.0055649 0.94481933 0.96610963 0.9988419 0.96313184 0.96259946 0.9906674
0.9262237 0.9567729 1.0185032 0.9682217 0.9537565 0.9884928 0.9738215 1.0604491
1.0198601 0.9961876 0.9841359 1.0455606 1.0132594 1.0377803 1.0467082 1.0682738
0.9772732 0.9936096 1.0584388 0.97367555 1.0347731 1.0451651 1.0140396 1.0037502
0.9591615 1.0395968 0.9453423 0.9670615 1.0061228 0.9446507 1.037738 1.0008092
0.98246074 0.96954346 1.0132196 1.012723 1.0357425 1.0306926 0.98762923 0.98269653
1.0834745 1.0215223 1.0249819 1.0048385 1.0295479 1.051872 0.9875579 1.034576
0.997181 1.0033265 1.00856 1.0126227 0.97294325 1.0973942 1.0127087 1.0266023

features.1.bn.bias f4 [64]
00000000: be16 7dbd ccc2 c8bc a376 16be 4ee0 be3b
00000010: d234 653d b041 42bd 0636 5fbd 0444 9cbd
00000020: bd4e 9b3c 77aa f8bd 1bf8 c3bd 2fa7 3fbc
00000030: 333d 0abc c725 213a 4b47 b63c 7213 04bb
00000040: 703b 68bd e7a5 393c bc88 35bc 4308 1cba
00000050: e5f6 c4bb d8e6 19be d83f 01bd f0e3 3ebc
00000060: 1012 9a3b ac12 82bd 407f 67bc c20e 4ebe
00000070: dc2e 113d 6744 8cbd 83da 4dbd 27c6 10bd
00000080: da9d f9bd f6e2 bbbc 7a85 c3bd c87c 9bbd
00000090: e277 f2bc d75f a3bc 757f 50bc 1f70 b43b
000000a0: e2f3 1dbe 84be 95bc ef89 ba3b 910e 13bd
000000b0: 15a0 86bc d24d 8ebd 575a 55bd 368c 98bd
000000c0: 9c45 00be e842 d1bd d093 d9ba 5c51 68bc
000000d0: b0ac 68bd db17 33bd ab1a 16be 89c8 5bbd
000000e0: bd2a 39bd b046 debc a416 f7bd f68f 22bd
000000f0: 83c9 8bbd f121 3abd d3a7 913d 24d5 1f3d
-0.061789267 -0.024506949 -0.14693694 0.005825079 0.055958577 -0.047425926 -0.05449488 -0.076301605
0.018958444 -0.121418886 -0.09568807 -0.0116975745 -0.008437443 0.0006147292 0.022250792 -0.0020153192
-0.05669731 0.011331058 -0.011079963 -0.0005952159 -0.0060108774 -0.15029466 -0.031555027 -0.011651024
0.0047018602 -0.06351218 -0.01412946 -0.20122817 0.03544508 -0.06848984 -0.050257217 -0.035345223
-0.12188311 -0.022935372 -0.09546943 -0.075921595 -0.02959818 -0.019943161 -0.012725701 0.00550653
-0.15425065 -0.018279321 0.0056927125 -0.035902563 -0.016433755 -0.06948437 -0.052088108 -0.07448618
-0.12526554 -0.102178395 -0.0016599838 -0.014179554 -0.056805313 -0.043723922 -0.1465861 -0.053658042
-0.045206774 -0.027133316 -0.12064865 -0.039688073 -0.06825545 -0.045442525 0.07112088 0.039021626

features.1.bn.running_mean f4 [64]
00000000: be0c 9c3d e431 05bd 3d1d 083e f242 9e3d
00000010: e756 9b3d 34d1 a0bb 7152 8abd a30b cb3d
00000020: 5e5f 04bd cb6b 463c 4617 c0bd 2cb6 01be
00000030: a073 28be e129 893e 4838 2f3d d177 e93d
00000040: 32e6 f3bd 1769 12bb ae8a 1cbd 826d 5bbe
00000050: b48a 39be 645c dabd a476 0bbd 9284 263e
00000060: 6504 81bd 9d6b 03be 9f10 863e 774e 293e
00000070: 1e82 30be 1632 e5bd 4764 103e 9df1 1abe
00000080: 46dc 87bd aa8a 3b3e c2c1 2e3e 8705 173e
00000090: 0cac d2bc 3470 abbd 3eb5 b9bd 8ebc 04bc
000000a0: 3d92 063e d8f0 533e e6e2 eb3b c720 5b3d
000000b0: 8b72 86be 5b2a eb3d c84e 67be a57d 9fbd
000000c0: 9f74 b4bc 871d bfbc ad4d dcbd b0f5 2c3c
000000d0: 34b3 2dbe cafe 463d 1617 91be cd12 3ebd
000000e0: 52b0 d13d 26ec a9bd 5e3f 773d b890 b9bb
000000f0: 2e7d 63bd 7ad7 7fbb 7774 a13e 76cf 04be
0.07619618 -0.032518283 0.13292404 0.077276126 0.07584935 -0.0049077515 -0.06754006 0.09914329
-0.03231751 0.012110661 -0.09379439 -0.1266715 -0.16450357 0.26789764 0.042778283 0.11399806
-0.11909141 -0.002234047 -0.038218193 -0.21428493 -0.18119317 -0.10662153 -0.03404869 0.16261509
-0.06299666 -0.1283402 0.26184556 0.16533838 -0.17237136 -0.11191194 0.14100753 -0.1513123
-0.06633811 0.18314615 0.170661 0.14748202 -0.025716804 -0.083710104 -0.09067772 -0.008101596
0.13141723 0.20697343 0.0071986793 0.053498056 -0.26259264 0.11482688 -0.22588646 -0.07787637
-0.022028266 -0.02332951 -0.10757003 0.010556623 -0.16962892 0.04858283 -0.28337926 -0.04640465
0.102387086 -0.08296995 0.060363166 -0.005663004 -0.055539303 -0.0039038346 0.31534168 -0.12969765

features.1.bn.running_var f4 [64]
00000000: 8cd5 1b3d 44ce 2f3d 5585 dc3c b543 6d3d
00000010: 3908 2d3d 1057 1e3d fa65 e43c fb03 853d
00000020: e40b 403d 6f3c d43c 9358 913c ff7c 183d
00000030: 6182 203d edbe 2b3d c915 b43c bceb 483d
00000040: 3094 053d b4c3 373d ecb9 093d 8bd6 743d
00000050: a91f 1d3d 7938 463d 307d 363d dee9 f23c
00000060: e02b 0c3d ea94 303d b4a1 493d 1ac1 3f3d
00000070: abe5 373d aeb1 093d ffe2 5b3d 17a4 183d
00000080: 8f3d fb3c f518 463d e402 453d eb61 313d
00000090: 7cb7 b43c cf89 0b3d d2de 393d 7504 323d
000000a0: 92db 243d 9075 613d 252a 223d 0fc7 2c3d
000000b0: 589d 573d 45cb 383d 303a 2f3d 5998 523d
000000c0: aef2 483d 2e31 fd3c 1061 2f3d 071f 3a3d
000000d0: df23 133d a582 343d 9879 1d3d d420 473d
000000e0: 76f5 263d 15db 023d 6d33 6d3d e06c ef3c
000000f0: 6a07 fa3c 1a8a 053d 9ff9 303d c883 163d
0.03804545 0.04292132 0.026919046 0.0579259 0.04224417 0.038657248 0.027880657 0.064949
0.04688634 0.025907723 0.01774243 0.03722858 0.03918684 0.041930128 0.021983044 0.04905294
0.032612026 0.04486437 0.033624575 0.059774917 0.03836027 0.0483937 0.04455298 0.029652532
0.03422153 0.043110766 0.049226478 0.046815015 0.044896763 0.033616714 0.053683277 0.037265863
0.030669002 0.048363645 0.04809846 0.043306272 0.022060148 0.03406697 0.045378514 0.04346128
0.04024846 0.055043757 0.039590973 0.042182025 0.05264029 0.045115728 0.0427801 0.05141482
0.049059562 0.03090724 0.042817175 0.045439746 0.03592288 0.044069905 0.03844604 0.04861529
0.040761434 0.031947214 0.05791037 0.02922672 0.030521113 0.032602407 0.043206807 0.03674677

features.2.depthwise.weight f4 [64, 1, 3, 3]
00000000: 4b49 573d 339c 1d3e a6bb af3d af26 123e
00000010: 56b4 0abe 8dbc 2bbe cec6 87be 46a5 a23e
00000020: 7e48 8fbd cc3b be3c c22a 803e ad99 12be
00000030: 299f e9bd 2b9e 14be 1161 2e3e b38f a03d
00000040: a23b 81be d994 6b3e 56d1 a83d 702d 0dbe
00000050: 00e7 0d3e 3412 73be 2079 35be 8707 22be
00000060: f51c b23d b42d e0bd 432b 843e 2381 7bbe
00000070: 95d0 1e3e b795 b5be 5a5a 17be 4ec9 8f3e
00000080: 980f 3dbd 4d0c 5abe 4ec8 453e 76e0 63be
00000090: 397a b53d 92a7 8abd 6017 923d 806b 70be
000000a0: 12e9 79be dd08 42be 1c39 b8bd e11a ac3e
000000b0: bfa3 383e 2ada 93be 68dd ea3d b684 813e
000000c0: a40b af3e f85f f5bb 08ac 863d 2a12 393e
000000d0: db23 c13e 3086 153d f770 b5bd 6804 953e
000000e0: 798a bcbd 7041 553e 2e20 2f3e 2689 7f3e
000000f0: 734e 81be 0d86 8c3e 93ee f13d b3d1 e03d
00000100: 4fc0 0d3e b1c4 8a3d 5814 803e 8a85 41be
00000110: 4a01 8bbe c8d9 253e 15c9 d7bd 0519 9dbe
00000120: 549d 9d3e c2ea 3cbe 8387 7bbe daa6 4bbe
00000130: 1b06 843e 929f 4bbd 160d 12be dc58 7d3e
00000140: 7342 8b3e 858c 993d ac77 993e 04dc 99be
00000150: 55a0 b6be eaee 043e e9bb 19be 0936 f63d
00000160: f559 763e 0454 70bd c261 73be 3f7d e03e
00000170: 0911 41be 6a93 0fbe b482 423e 6fb2 32bd
00000180: 9138 3fbe 8a7f a93d bfd1 1cbe 5e2c 5fbc
00000190: 6d5d 82be e8fe 0bbe 5eee 663e ce5d 0e3e
000001a0: 6e4d 95bd 2be0 813e 3459 1e3e dcb5 153e
000001b0: c5e4 5c3e 8ff8 afbd 0479 9cbe 2c4e acbd
000001c0: 620c 1fbe f48b 1b3d 7194 813e ac94 b73e
000001d0: ecd8 683e a139 3b3d 2f4e 9f3e 5280 2d3c
000001e0: 23ca 1b3e 91ac 21be 5770 a43e 7ceb f33d
000001f0: e3b3 8e3c bf6e 03be f5a3 2d3d 4a34 c9bc
00000200: 4868 8ebe 6419 72be 631a b9bd 2289 e93c
00000210: 9b22 f1bd 2918 413e ad2b 36be d321 6e3e
00000220: c928 8cbd e06d 49bd 9acb e3bc 7882 70bd
00000230: 84cd 4a3e 3091 82bd c177 35be e63e 5b3d
00000240: 89fb 7abe 7e44 353e fcf7 683d 00ec 453e
00000250: ea3a 12bd c2fd eb3c 3d68 26be bd05 e3bd
00000260: 0a78 803d fb11 0a3e 4cf6 fdbd 282f 6f3e
00000270: a60d c6bd 66ee bfbd 8d11 953e de99 99bd
00000280: 0698 493e d1ef e6bd f7f5 793e 9d2d 183d
00000290: 1eb3 e7bd 2a0d 5bbe 5f4a 393e a5e4 d73d
000002a0: 2a61 123c bb81 bbbd 62f8 1dbe 5ab0 56be
000002b0: 4775 0c3e 95d5 a7be 755e 2ebd 6991 803e
000002c0: a4fe 3f3e 970e dd3d de3f 263e efc1 40be
000002d0: 974d 0a3e df45 9e3e 6794 ed3d 8491 383e
000002e0: 9463 68be 460f 8cbe 5cec fcbd 2903 813e
000002f0: b28d 783e 3d07 f9bd f7f9 36be 379c 8b3d
00000300: 7abf bfbb cde8 0e3d e3a5 b4be 5822 d23c
00000310: a8b9 373e d5c6 c23e 5a1f b13c b6d6 263e
00000320: e89c 033d cb5d b2be fecb 8dbd 3079 0fbe
00000330: c9c5 98bd 153f 12be 7c6a 923e cb1d 57be
00000340: dbd1 96be e317 efbd 88d4 b43e ec78 9dbd
00000350: fedd 213e 5ee7 813e ca5b 883e 2bdc 95bd
00000360: da5e fe3d 3b0d 2fbe 02c6 14be 09ba 59be
00000370: 8cd2 8ebe 00f7 ae3d 31dc 23be b394 293e
00000380: 8afe ab3e 6f59 333d 62c7 3d3e d435 cdbe
00000390: 5197 19be 376d 68be 6378 82be de2c f83d
000003a0: 6d12 ce3d b8e9 963e 775e 07be f0a4 75be
000003b0: 8187 8ebe f1a9 a73c 6668 65be 4762 833d
000003c0: d37a 0d3e 6bc1 bd3e 0955 96bd 1c7f 46be
000003d0: 0202 81be f174 493e bc7c 983d 07d3 053d
000003e0: 1714 c1be 1624 593e c9ad d73d c905 b5bc
000003f0: 8c17 883d cdfc 35be f543 9c3c e802 fa3c
0.052560132 0.15391617 0.08580713 0.14272569 -0.13545355 -0.16771145 -0.26518863 0.3176672
-0.06996249 0.023221873 0.25032622 -0.14316435 -0.114073105 -0.14513461 0.17029215 0.078399085
-0.2524081 0.23006 0.08243053 -0.13786864 0.13857651 -0.23737413 -0.17721987 -0.15823184
0.08696929 -0.10946217 0.25814256 -0.2456098 0.15509255 -0.35465786 -0.1478056 0.2808327
-0.04615745 -0.21293755 0.19314691 -0.22253594 0.08861203 -0.06770243 0.07133365 -0.23478508
-0.24405316 -0.18948694 -0.08995268 0.33614257 0.18031214 -0.28877383 0.11468011 0.25296563
0.3418857 -0.007488247 0.06575781 0.18073335 0.37722668 0.036504924 -0.08859437 0.29104924
-0.09206099 0.20825744 0.1710212 0.24954662 -0.25255165 0.27446023 0.118130825 0.10977497
0.13842891 0.06775797 0.2501552 -0.18898597 -0.2714942 0.16196358 -0.105364 -0.3068315
0.30784094 -0.18448928 -0.24563412 -0.19887868 0.25785908 -0.049712725 -0.14262804 0.24740928
0.27199134 0.07497505 0.29974115 -0.3005067 -0.356692 0.12981763 -0.15013088 0.12022025
0.24057753 -0.058673874 -0.2376776 0.43845555 -0.18854155 -0.14021078 0.18995172 -0.0436272
-0.18673922 0.08276279 -0.15314387 -0.013621418 -0.25461903 -0.13671458 0.22551867 0.13902971
-0.07290159 0.2536634 0.15463716 0.14620155 0.21571644 -0.08592331 -0.30561078 -0.084133476
-0.15532067 0.037975267 0.25308564 0.35855615 0.22738999 0.045709256 0.31114337 0.010589676
0.15213828 -0.15788485 0.32116958 0.119101495 0.017419761 -0.12835215 0.04239269 -0.024561066
-0.27813935 -0.23642498 -0.09038236 0.028507773 -0.117741786 0.18856873 -0.17790098 0.2325509
-0.06843717 -0.04917705 -0.027807046 -0.058718175 0.1980496 -0.063753486 -0.17721464 0.05352678
-0.24510016 0.17701909 0.05687712 0.19328308 -0.035700716 0.028807525 -0.16250701 -0.11085079
0.06272896 0.13483422 -0.12400493 0.23357832 -0.09670572 -0.09371643 0.29114953 -0.07500051
0.19686899 -0.1127621 0.24410234 0.037152875 -0.11313461 -0.2139174 0.18094777 0.10541657
0.0089342985 -0.091556035 -0.15426782 -0.2096571 0.13716613 -0.32780138 -0.04257055 0.2511094
0.18749481 0.107937984 0.16235301 -0.1882398 0.1350616 0.30912682 0.11600571 0.1802426
-0.22694236 -0.27355403 -0.123497695 0.25197724 0.24272802 -0.12159584 -0.17868792 0.06816905
-0.005851683 0.034889985 -0.35282812 0.025651142 0.17941916 0.38042322 0.021621395 0.16292843
0.03213206 -0.34837183 -0.06923674 -0.14011073 -0.074595995 -0.14281876 0.28596866 -0.21007459
-0.29456982 -0.11674478 0.35318398 -0.0768908 0.1580734 0.25371832 0.2663253 -0.07317384
0.12420435 -0.17094891 -0.14528659 -0.21262373 -0.2789501 0.08543205 -0.16001965 0.1656063
0.33592635 0.043786462 0.1853309 -0.4008013 -0.14999129 -0.22697912 -0.25482473 0.12117933
0.10062108 0.29475188 -0.13219629 -0.239887 -0.27837756 0.020466777 -0.22403106 0.06415229
0.13816385 0.3706163 -0.07340438 -0.19384426 -0.25196844 0.19673516 0.07445666 0.032671954
-0.3771064 0.21205172 0.10531194 -0.022097485 0.06645116 -0.17772217 0.019075373 0.030518964
